results/Contrast-sota/DDPG/rl2/NetParams/Actor.pkl (torch, 887759 bytes, 31 tensors)

_input_layer.0.weight f4 [64, 8]
00000000: 751f 2f3e a27d 0f3d 4ce7 65be 79cc 50bd
00000010: d6d8 073e d6fe 8abc 8c46 9a3a 2420 44bd
00000020: 3cbe d83d 154c 033e 836c 5dbd 756e 863d
00000030: 3d1c 4a3d 0eb1 37be d78e fb3d 4bc0 be3b
00000040: 5ce6 193d 6856 d83c dc98 21bd 52c7 cabd
00000050: b6a9 0abe cd2e dcbd b3bf 853d 5659 58bd
00000060: 291a 1e3d de0e 473b 91be 95bd a261 4a3d
00000070: c460 5d3e b4c1 95bd 18bb aabc ba2c cebc
00000080: d529 343d 923c 203d ec9e 143e 153b b33c
00000090: 4e0b 9cbd ba97 673c e6f4 f33c 2916 463d
000000a0: c5d7 b3bd 1715 343e dc85 1b3d 4a67 12be
000000b0: 08d1 273e 84c5 273d e42c 383d b3ea 3abe
000000c0: 85fc 6a3c 763f 4a3e c939 c0bc 4542 f7bd
000000d0: c987 ebbd 3140 a83d 1459 563d ff7b 00bd
000000e0: cdd8 d2bc a65e 03be f919 ce3d 2c43 203e
000000f0: 479a d23d ea65 fdbb 050c 85bd 4a58 223d
00000100: 035b b7bd c05b 43bd d275 323d 90c4 1ebc
00000110: 84a1 243e f97b bebb 99a6 2dbd cd1b 7aba
00000120: b5a1 753d a7dd c53c 4d31 b53d adc0 11be
00000130: d9ab 47be 4bcb e53d 1b4d cabd ef65 7cbd
00000140: 0e82 9bbd 327f 0fbe 24c9 e8bd 1a0f 003d
00000150: 8429 65bb ed50 f3bd e3f0 3a3e 57f3 30be
00000160: d44b 2f3c a95a 10bd 9702 b6bd 2fbf 0c3e
00000170: e9e7 d63d 2d40 45be cddf a2bc 35b8 9fbc
00000180: a78e 38bd 6ade 85bb 9172 fabd 71dd 133d
00000190: 8d81 43be 8484 a53d 75ca cfbc 4d89 7e3c
000001a0: e1e8 503e 1e6e 98bd e846 a73c fabe 403d
000001b0: 70a5 eb3a 633c 96bd c0a8 36be 5504 1bbe
000001c0: 5728 b6bd de9e 893d f7ca be3d 8098 313d
000001d0: 17cd 9cbd dfb4 2e3b 65d3 5b3c 8b3f 3d3c
000001e0: d19b f2bd 6345 2dbe 2060 863d 455b 84bd
000001f0: 8603 f23b 6045 b03c 04ed 473e ca66 06be
00000200: 5053 a8bc d0c7 3fbd 602e de3d cd4a 06be
00000210: 8c5d b4bd 098a 8b3c 99b2 30bd 0385 473e
00000220: a9d2 dabd 5b93 713d ef22 bfbd 36a9 713d
00000230: 3301 50ba 343c e0bd 409e 363d 65c1 273e
00000240: ff98 e8bd 7104 c3bd 6918 98bd 2e99 fabc
00000250: 7c84 e0bd e279 77bd 875e c93d 2915 08be
00000260: b73a 03bd 1d12 813d 53f2 b13b 6b35 243d
00000270: 07a7 623d 4a9d 4bbd d650 1f3c dce3 c7bd
00000280: 3766 bbbc c1f6 44bd ca53 483d 5603 2dbd
00000290: 5414 3b3e b128 cb3c 2ad6 9abc 30b2 51bd
000002a0: c9fa c33d b168 20be 7291 e0bd 8cf2 173c
000002b0: 6b2d f13d 93cb fb3b 9c79 44bc 797e b6bd
000002c0: 435a 993d ba3e 40be bd1d 603e 13b0 81bd
000002d0: 36b1 413d 6c28 2dbd ebb8 91bc a936 3abe
000002e0: d8b1 173d c534 323e f5c6 b83d 1d25 7c3d
000002f0: 82d7 303c eb21 32be 1808 88bc c4be abbc
00000300: afdb 21be 5c46 0a3d 94f7 b9bd f1aa 08bc
00000310: 8599 0e3e 6484 f23c 8d4e b2bd 367c 233e
00000320: e104 073d f884 ad3d ea9e 633d 6fd6 9fbd
00000330: 5f6b 953d a1d1 aabd 48b8 ea3b 5cfc cabc
00000340: 2ad4 a2bd 12a6 c63d 53b3 3cbc 7874 b3bc
00000350: e63c 01be adfa 243e ddb3 48bd d9fc e1bb
00000360: a12f 1c3e 70d8 0f3a f1c0 3ebd 95bf 0d3e
00000370: a867 70be f8e9 033e 1f20 0fbd de97 91bc
00000380: f201 8ebd 8a0a 96bc e4c7 3d3d a1ac 3ebb
00000390: 8a03 e9bd cde2 12bd ad61 9a3c 1773 fb3c
000003a0: bb09 a23c a5e4 973d 8297 903d b0fe 01bd
000003b0: 36ba 333e 9c2b 81bc 0ae8 e43d bc9a 7bbd
000003c0: 1908 7d3d 232d 1abe 2377 823d 285d 8f3d
000003d0: fdcc 50bd 6533 97bd 9f4a 203e 1b75 513d
000003e0: 90d0 3fbd 9fec 4d3c b5cd 3cbd 6e66 68bd
000003f0: b5c3 7cbd df4b 7e3d f94f 0fbe f5b5 5a3e
0.17101844 0.035031922 -0.22451514 -0.05097625 0.1326631 -0.016967218 0.0011770292 -0.047882214
0.10583159 0.12821992 -0.054058563 0.06564037 0.049343336 -0.17938635 0.12283104 0.005821263
0.037573203 0.02640839 -0.03945242 -0.099012986 -0.13541302 -0.10751114 0.06530704 -0.052819572
0.038599167 0.0030373852 -0.07311738 0.049409516 0.21618944 -0.073123366 -0.020841166 -0.025167812
0.043985207 0.039120264 0.14513749 0.021878758 -0.07619344 0.0141352955 0.029779863 0.048360977
-0.08781389 0.1758617 0.037969455 -0.14297214 0.16388333 0.04095985 0.044964686 -0.18253593
0.014342432 0.19750771 -0.023465054 -0.12073187 -0.11500508 0.082153685 0.052331045 -0.031368252
-0.025738144 -0.12829074 0.10063548 0.15650624 0.10283332 -0.0077330964 -0.06496433 0.03963498
-0.08952906 -0.04769492 0.043569393 -0.009690419 0.16077238 -0.0058131185 -0.042395208 -0.0009540886
0.05996867 0.024153544 0.08847294 -0.14233656 -0.19499148 0.11220416 -0.09877988 -0.06162065
-0.07593165 -0.14013365 -0.113664895 0.031264402 -0.0034967372 -0.1188067 0.18255953 -0.17280327
0.010699231 -0.03524271 -0.08887213 0.13744806 0.10493452 -0.19262762 -0.019882107 -0.019497016
-0.04505792 -0.0040853517 -0.12228883 0.036099855 -0.19092388 0.08081916 -0.025365094 0.015535665
0.20401336 -0.07442878 0.020419553 0.04705713 0.0017978381 -0.073357366 -0.1783781 -0.15138371
-0.08894413 0.06719755 0.09316056 0.043358326 -0.07656305 0.00266581 0.0134171 0.011550794
-0.11846126 -0.16921 0.06561303 -0.06462721 0.007385674 0.021517456 0.19524008 -0.13125148
-0.020547539 -0.046821415 0.10848689 -0.13114472 -0.08806905 0.017033594 -0.043139074 0.19484334
-0.106847115 0.05897842 -0.09332835 0.058999263 -0.0007934749 -0.10948983 0.044584513 0.16382368
-0.11357307 -0.095223315 -0.07426531 -0.03059062 -0.109627694 -0.06041897 0.09832483 -0.13289322
-0.032038417 0.06302283 0.0054304986 0.040090006 0.05533507 -0.04971055 0.009723863 -0.097602576
-0.022875888 -0.048086885 0.048908032 -0.04223951 0.18269473 0.024799677 -0.01890095 -0.051195323
0.09569318 -0.15664937 -0.109652415 0.009274136 0.11776241 0.00768418 -0.011991885 -0.089108415
0.07487919 -0.18773928 0.21886344 -0.063324116 0.047288142 -0.042274877 -0.017788371 -0.18184914
0.03703484 0.17402942 0.09022323 0.06155883 0.010793569 -0.17395751 -0.016605422 -0.020964988
-0.15806459 0.033758506 -0.09080425 -0.008341537 0.1392575 0.029604144 -0.087063886 0.15965351
0.032963637 0.084726274 0.055571474 -0.07804572 0.0729587 -0.08340765 0.0071630813 -0.024778537
-0.07950623 0.09699644 -0.011517364 -0.021906123 -0.12620887 0.1611125 -0.048999656 -0.006896597
0.15252544 0.0005487269 -0.046570722 0.13842614 -0.23477042 0.12882221 -0.034942742 -0.017772611
-0.06933965 -0.018315572 0.04633321 -0.0029094594 -0.11377628 -0.035860825 0.018845404 0.030694528
0.01978003 0.07416657 0.07060148 -0.03173703 0.17551503 -0.015767865 0.111770704 -0.061426863
0.0617753 -0.15056281 0.0637038 0.0700019 -0.050976742 -0.073828496 0.15653466 0.05113707
-0.04682976 0.012568622 -0.046094615 -0.05673831 -0.06171008 0.062084075 -0.13995351 0.21358474

_input_layer.0.bias f4 [64]
00000000: b868 40bd 4f57 0ebd 338d 283d 28b8 29bd
00000010: 6e59 3f3c 921b c3ba 5d7d 013c eaae 1fbb
00000020: af55 b2bc 4647 5a3d 96e5 413c f5d8 7ebc
00000030: b9a5 303d 18ec bfbb 103e 3b3d d604 a83c
00000040: be2b bf3b 664d 77bc d596 8e3c 96bc 633c
00000050: e38d 9bbc 3f49 0cbd 1118 9b3c c7fd 373b
00000060: 7421 9ebc 4196 8fbc 1be9 013d a9d0 d23c
00000070: b55d 0f3d a8cd 8bbc ccf3 1cbd 6c47 f7bb
00000080: 7345 e8bc 58f8 cf3c e506 4e3c 5b7e 3c3c
00000090: 30a7 e4bb 6cfd 773c d791 83bb c3e5 25bd
000000a0: 05b2 0b3c 16a9 863c a8c1 0abd ff12 d0bb
000000b0: ae51 15bd a943 8f3c 8260 91bb 8fb4 c1b8
000000c0: d579 cd3b f936 ea3b bb89 c23c 3c80 afba
000000d0: 7ad3 e6bc 8680 acbc da9e 323b c646 ef3c
000000e0: 5237 fc3c d1a8 893c 6cdf c23c 2cf1 173b
000000f0: 6683 d23c 9b82 dfbc bec3 ef3c 988c c3bb
-0.046974868 -0.034751233 0.041150283 -0.04143539 0.011679037 -0.0014885536 0.007903424 -0.0024365732
-0.021769373 0.053290628 0.011834523 -0.015554656 0.043126795 -0.005857002 0.045713484 0.020510118
0.005834072 -0.015094137 0.017405907 0.013899943 -0.018988555 -0.03424954 0.018932374 0.0028074847
-0.019303061 -0.017527701 0.031716447 0.025734263 0.035001475 -0.017065838 -0.03831844 -0.007546356
-0.028353428 0.025386974 0.012574886 0.011504735 -0.006977938 0.015136104 -0.004015188 -0.04050232
0.00852633 0.016438048 -0.03387609 -0.0063499208 -0.03645485 0.017488318 -0.0044365535 -9.236589e-05
0.006270627 0.0071476665 0.023747316 -0.0013389657 -0.028177012 -0.021057379 0.0027255327 0.029208552
0.030788098 0.01680413 0.023788176 0.002318452 0.025697421 -0.027283957 0.029268142 -0.005967688

_input_layer.1.weight f4 [64]
00000000: 3609 993f b175 813f 22c2 7d3f 4155 893f
00000010: abe8 7f3f d540 993f 82c2 903f 68f5 803f
00000020: 669c 953f 48c4 833f 8b14 813f d86d 8d3f
00000030: 1e4b 7f3f 3d2c 803f 94e6 903f e4bd 853f
00000040: 0879 873f fa3d 873f 1695 7b3f 7e4c 863f
00000050: 4a21 853f de78 8a3f e823 8a3f c7f3 863f
00000060: 7e79 8f3f a5d6 833f 330b 873f 0cd3 993f
00000070: eb0b 7b3f c8ac 803f a34d 823f 03b6 823f
00000080: d26a 993f 9d62 a43f 7849 853f 0ae3 853f
00000090: a32c 813f 2b87 863f 3e00 823f af93 963f
000000a0: 8111 843f fa90 823f aac5 873f 79b8 803f
000000b0: beb9 8b3f 772e 8b3f bbcd 953f 15fd 853f
000000c0: e3e0 813f 9209 833f b14b 8d3f 2ddf 803f
000000d0: 9b1a 943f 7ff5 863f b3fb 813f 4d17 823f
000000e0: 4829 973f 707c 7b3f 626c 903f 992c 8f3f
000000f0: f948 893f 2c73 953f 0306 963f a9f9 833f
1.1955936 1.0114042 0.9912435 1.0729142 0.999644 1.197291 1.1309359 1.0074892
1.1688354 1.0294275 1.0084394 1.1049147 0.99723995 1.00135 1.1320367 1.0448575
1.0583811 1.0565789 0.9827436 1.0492094 1.0400784 1.0818136 1.0792208 1.0543145
1.1208951 1.0299879 1.0550293 1.2017531 0.9806506 1.0052729 1.0179943 1.0211796
1.1985724 1.2842594 1.0413046 1.0459912 1.0091747 1.051 1.0156324 1.176382
1.0317842 1.0200493 1.0607197 1.0056297 1.0916059 1.0873555 1.1703409 1.046786
1.0146755 1.0237296 1.1038724 1.0068108 1.1570619 1.054367 1.0154938 1.0163361
1.1809473 0.9823675 1.1283076 1.1185485 1.0725394 1.1675773 1.1720585 1.0310565

_input_layer.1.bias f4 [64]
00000000: f302 3ebd 7aac 0dbd fee6 273d 0d0a 28bd
00000010: ce34 423c 201a f4ba 8525 f73b f74a 18bb
00000020: e4a6 b0bc b83e 593d d904 3f3c 462c 7fbc
00000030: 93d3 2f3d 38d1 c2bb 468c 393d dfff a33c
00000040: abd9 bd3b d73f 74bc c8d7 8f3c 68f1 5f3c
00000050: 97a0 99bc 7500 0cbd b2d2 963c 37ef 3c3b
00000060: 08ef 9cbc 6814 8dbc 6b97 003d 8c25 d03c
00000070: 2544 0f3d eb6b 8abc bbb4 1bbd a698 f6bb
00000080: 242e e8bc e9be cc3c 01b0 463c 41cb 393c
00000090: b1be e8bb e23d 793c df39 85bb 84a4 23bd
000000a0: 5704 093c 0271 853c d906 09bd cf17 cdbb
000000b0: e164 13bd 5ce3 8d3c 76d2 72bb 48bd 43b9
000000c0: a5ac c93b 8631 ec3b b71d bf3c ff78 adba
000000d0: 52b5 e4bc 64d9 a9bc 13d9 2a3b 8f11 ed3c
000000e0: fed2 f73c 60aa 8a3c adf4 c03c 43c0 203b
000000f0: b0f7 d03c 9abf ddbc b854 ee3c 8a7d bdbb
-0.04638953 -0.034588315 0.040991776 -0.04102521 0.01185341 -0.0018623509 0.0075423145 -0.0023238042
-0.021563955 0.05303833 0.011658871 -0.01557452 0.042926382 -0.005945351 0.04529979 0.02001947
0.0057937703 -0.014907799 0.017558947 0.013668396 -0.018753333 -0.034180123 0.018411014 0.0028829107
-0.019156948 -0.017221645 0.031394403 0.025408529 0.034977097 -0.016897162 -0.038014155 -0.0075255213
-0.028342314 0.024993377 0.012126924 0.011339963 -0.0071028103 0.015212508 -0.0040657367 -0.039951816
0.008362851 0.016289238 -0.033453796 -0.0062589417 -0.035984877 0.017320327 -0.0037051714 -0.00018667162
0.006154614 0.007208052 0.023329599 -0.0013234912 -0.027918492 -0.020733543 0.0026069328 0.028939037
0.030251976 0.016926944 0.02355417 0.002452866 0.025508732 -0.027068902 0.029093131 -0.0057827877

_input_layer.1.running_mean f4 [64]
00000000: 0000 0000 0000 0000 0000 0000 0000 0000
00000010: 0000 0000 0000 0000 0000 0000 0000 0000
00000020: 0000 0000 0000 0000 0000 0000 0000 0000
00000030: 0000 0000 0000 0000 0000 0000 0000 0000
00000040: 0000 0000 0000 0000 0000 0000 0000 0000
00000050: 0000 0000 0000 0000 0000 0000 0000 0000
00000060: 0000 0000 0000 0000 0000 0000 0000 0000
00000070: 0000 0000 0000 0000 0000 0000 0000 0000
00000080: 0000 0000 0000 0000 0000 0000 0000 0000
00000090: 0000 0000 0000 0000 0000 0000 0000 0000
000000a0: 0000 0000 0000 0000 0000 0000 0000 0000
000000b0: 0000 0000 0000 0000 0000 0000 0000 0000
000000c0: 0000 0000 0000 0000 0000 0000 0000 0000
000000d0: 0000 0000 0000 0000 0000 0000 0000 0000
000000e0: 0000 0000 0000 0000 0000 0000 0000 0000
000000f0: 0000 0000 0000 0000 0000 0000 0000 0000
0.0 0.0 0.0 0.0 0.0 0.0 0.0 0.0
0.0 0.0 0.0 0.0 0.0 0.0 0.0 0.0
0.0 0.0 0.0 0.0 0.0 0.0 0.0 0.0
0.0 0.0 0.0 0.0 0.0 0.0 0.0 0.0
0.0 0.0 0.0 0.0 0.0 0.0 0.0 0.0
0.0 0.0 0.0 0.0 0.0 0.0 0.0 0.0
0.0 0.0 0.0 0.0 0.0 0.0 0.0 0.0
0.0 0.0 0.0 0.0 0.0 0.0 0.0 0.0

_input_layer.1.running_var f4 [64]
00000000: 0000 803f 0000 803f 0000 803f 0000 803f
00000010: 0000 803f 0000 803f 0000 803f 0000 803f
00000020: 0000 803f 0000 803f 0000 803f 0000 803f
00000030: 0000 803f 0000 803f 0000 803f 0000 803f
00000040: 0000 803f 0000 803f 0000 803f 0000 803f
00000050: 0000 803f 0000 803f 0000 803f 0000 803f
00000060: 0000 803f 0000 803f 0000 803f 0000 803f
00000070: 0000 803f 0000 803f 0000 803f 0000 803f
00000080: 0000 803f 0000 803f 0000 803f 0000 803f
00000090: 0000 803f 0000 803f 0000 803f 0000 803f
000000a0: 0000 803f 0000 803f 0000 803f 0000 803f
000000b0: 0000 803f 0000 803f 0000 803f 0000 803f
000000c0: 0000 803f 0000 803f 0000 803f 0000 803f
000000d0: 0000 803f 0000 803f 0000 803f 0000 803f
000000e0: 0000 803f 0000 803f 0000 803f 0000 803f
000000f0: 0000 803f 0000 803f 0000 803f 0000 803f
1.0 1.0 1.0 1.0 1.0 1.0 1.0 1.0
1.0 1.0 1.0 1.0 1.0 1.0 1.0 1.0
1.0 1.0 1.0 1.0 1.0 1.0 1.0 1.0
1.0 1.0 1.0 1.0 1.0 1.0 1.0 1.0
1.0 1.0 1.0 1.0 1.0 1.0 1.0 1.0
1.0 1.0 1.0 1.0 1.0 1.0 1.0 1.0
1.0 1.0 1.0 1.0 1.0 1.0 1.0 1.0
1.0 1.0 1.0 1.0 1.0 1.0 1.0 1.0

_middle_blocks.0.weight f4 [256, 64]
00000000: a6a3 08be be77 c3bc 4293 5d3d 4e21 37be
00000010: 1e3d 49bc aaa3 d5bd abb9 5c3d b420 d4bd
00000020: 9413 49be 44cf a93d 450e 1f3e 5ed1 cabd
00000030: c629 033e 9b27 80bd faa8 733c 9012 d93d
00000040: 3d2e e7bd 61f0 0dbd 5e55 7b3d ef8b 20bd
00000050: 76f5 27be 6915 a63c 523a 9fbd d28d 113d
00000060: 0f27 ccbd fef9 80bc f4eb 203e 5482 ca3d
00000070: 05f9 c9bc 0382 a13c 0020 cebc 7227 87bd
00000080: c02f 94bd 89de 453e d537 783d b396 89bd
00000090: 4e67 13be 9dc6 f7bd 6108 85bd 0a6d 51bd
000000a0: 3083 32be 93db 193e ec93 05be ab63 dc3d
000000b0: 7079 fdbd 2a08 9a3d 9880 98bd cd4d 66be
000000c0: 1fe8 25be d72f b9bc 5dc7 863c 8cd9 26bd
000000d0: 4459 d2ba 2566 e93d 683a b6bc 7e59 aabc
000000e0: 491b e23d 235a bbbd 8911 62bd f8a6 803d
000000f0: eae8 6a3d 5cd8 09be 1722 efbc eeba 343e
00000100: b532 6cbd 58fb 44be 9210 c3bc 5631 2dbd
00000110: 559e 0abe 9046 fe3d d22e 87bd 9ae7 debc
00000120: a9e4 15be 27c5 ed3d 663e 29bc 7f61 1abe
00000130: 3dd2 ddbd e794 bcbd bfd3 aa3d c2c0 b6bd
00000140: 0fb5 e33b ba25 efbd 4ae7 c63d 8ed5 d6bd
00000150: 6b6f 393e 1b5f 15bd 82bb c13d f40a 113e
00000160: 0124 cf3d 397e cdbc 8cc7 243c e821 adbd
00000170: d98e 04be f7c4 183e 18db 0abe fffb 0cbe
00000180: a618 803d 5624 763d 442e cfbb 1399 8fbd
00000190: 6f75 303d f4b0 a33c 122a 563d 5d6b 03be
000001a0: 60f5 023e 8183 32bd 4e80 043e aead 993d
000001b0: 157b 05bd 2180 1bbd b014 7dbd ce65 973d
000001c0: 62c8 0d3e ba2b 14bd 667d 4a3d 50c5 afbd
000001d0: d635 13be f090 81bd 39bf cabd 218d 993d
000001e0: 13bf d1bb 7e23 56bc 5951 d1bd 9e75 cf3c
000001f0: 6a1c d23d d038 74bd fb90 23bc 62de 7abc
00000200: 47f7 19be 617e ae3d 2cfc ecbc 55c1 b8bd
00000210: 7a29 febd 7c92 463e c77a 803d 9eeb e8bd
00000220: 5983 3c3e ee0f 893d 6615 48bd 666b 1abd
00000230: 1405 0abe 14db 043d 0f89 ca3b 1bb2 163d
00000240: 125c 8d3c bc4f 0abe 55fb 003e 8aef bf3d
00000250: 937d 46be 5815 cbbd 2fac fd3d 122d c63b
00000260: 3b81 773c e85d abbd e327 363e fe92 193d
00000270: a812 c63c ceef bcbc fc10 ea3d dd31 ef3d
00000280: 1dc6 a3bd a7c6 b83d 2456 c23c ebc7 1b3e
00000290: 9b0e 323e 7c90 be3d 3e7b 283d 4cbb 05be
000002a0: 95e4 663c f2b4 f9bd 22c5 debd 1b26 99bd
000002b0: a0f9 cbbd 8f40 253e 61e2 2cbd 9cad 733d
000002c0: d6f8 563d bc5b 263d ba15 4cbd bd90 f53d
000002d0: 686d 263c 95c1 a1bd 921f f6bd eeec c23c
000002e0: 9a60 ef3c d6dd 2abe 288e 743d c921 923d
000002f0: 7db2 d2bd 4a17 f8bd 16e4 3f3d dc4f 143e
00000300: 1fa2 4fbc 6505 c43d ad1d 0a3d 18d0 463e
00000310: b38f 373c d7a3 803d ff55 aebd 0b7e c3bc
00000320: 1326 71bd cdb9 f43b bf38 a8bc c05e 003e
00000330: 4092 16bd 2e87 913b a66e 66bd 8058 943c
00000340: 6501 2dbe a719 09be ad37 4fbd 0a42 c23d
00000350: b7ae 2f3e 0060 3a3d ccf9 d53d 6727 ffbc
00000360: 9aa3 dcbd 22b2 3bbd 3c15 46bd 8182 a7bc
00000370: f746 7eba 5791 0f3e 4c92 ed3c 10f2 a9bd
00000380: 1c57 92bc 17b3 7dbc c806 a6bd be18 2bbd
00000390: d9df bfbd 61a0 9bbd fbb1 0b3d 3986 bc3d
000003a0: 9ac0 4d3e 204d 14be 3228 6c3e a13d c4bd
000003b0: f71e 2fbd 163f 43be 0dcd 173e a162 203e
000003c0: aefe f0bd 5728 41be b272 31bc 162c 943c
000003d0: ef75 113e f9f2 63be 4e68 9dbc bb10 d1bd
000003e0: b838 e0bd 991a 093d 2b1c 6c3b 4803 dcbd
000003f0: 22b7 ecbd b806 6a3e bfa4 18be 4431 a63d
-0.13343677 -0.023860808 0.054095514 -0.17883798 -0.012282638 -0.10431607 0.053888004 -0.103578
-0.19636375 0.08291486 0.15532787 -0.09903215 0.12808904 -0.06257554 0.01487183 0.10599244
-0.11288116 -0.03465307 0.06136071 -0.03919595 -0.1640223 0.020273881 -0.077747956 0.03553564
-0.09968387 -0.015744206 0.15715009 0.09888139 -0.024654875 0.019715315 -0.025161743 -0.065993205
-0.0723567 0.19323172 0.06060012 -0.06718197 -0.14394876 -0.12098429 -0.06495739 -0.05112938
-0.17432857 0.15025167 -0.13044709 0.10761198 -0.12376678 0.075210884 -0.07446402 -0.22490616
-0.16201828 -0.02260582 0.016452486 -0.040734813 -0.0016048332 0.11396436 -0.022244647 -0.020794626
0.110403605 -0.091480516 -0.055192504 0.06281847 0.05735103 -0.13461441 -0.02919106 0.17649433
-0.057665545 -0.19236505 -0.023811612 -0.04228338 -0.13536961 0.124158025 -0.06600727 -0.027210046
-0.14638008 0.116098695 -0.010329818 -0.15076254 -0.108311154 -0.09208088 0.083411686 -0.089234844
0.006949074 -0.11677118 0.09712084 -0.10489951 0.18108909 -0.036467653 0.094595924 0.14164335
0.10114289 -0.025084602 0.010057341 -0.08453733 -0.12945117 0.14918886 -0.1356014 -0.13768004
0.06254701 0.060093246 -0.006322654 -0.070116185 0.043080743 0.019981839 0.052286215 -0.12833925
0.12788916 -0.043582443 0.1293957 0.0750383 -0.032588083 -0.03796399 -0.061787307 0.073924646
0.13845971 -0.036174513 0.049435996 -0.08582556 -0.14376006 -0.06326473 -0.09899754 0.07497621
-0.0064009516 -0.013069985 -0.10220594 0.025324639 0.10259326 -0.059624493 -0.0099832965 -0.015311809
-0.15035735 0.085201986 -0.028928839 -0.0902125 -0.12410255 0.19391817 0.06273418 -0.113730654
0.1840948 0.066924915 -0.048848532 -0.03770008 -0.134785 0.03243549 0.0061808894 0.03679095
0.017255817 -0.13506979 0.12595876 0.0937186 -0.1938384 -0.0991618 0.12386357 0.0060478533
0.015106495 -0.083675206 0.17788653 0.0374937 0.024178818 -0.023063567 0.11429021 0.116794325
-0.079967715 0.09022265 0.023722716 0.15212981 0.17388384 0.09304902 0.041133158 -0.1305973
0.014092584 -0.12192716 -0.10877444 -0.07477971 -0.099597216 0.16137908 -0.04220808 0.05949174
0.052483402 0.04061483 -0.049825408 0.11990497 0.01015792 -0.07898251 -0.1201774 0.023794618
0.029220868 -0.16686186 0.059705883 0.0713535 -0.1028795 -0.12113817 0.04684838 0.14483589
-0.01267293 0.095713414 0.033719707 0.19415319 0.011203694 0.0628125 -0.08512496 -0.023863813
-0.0588742 0.0074684382 -0.020534871 0.12536144 -0.03676057 0.0044411635 -0.056257866 0.018108606
-0.16895063 -0.13388692 -0.050590206 0.09485252 0.17156492 0.04550171 0.104480356 -0.031146718
-0.10773392 -0.045824178 -0.048360094 -0.020447971 -0.00096999056 0.14020287 0.029000424 -0.08298123
-0.017863803 -0.015484593 -0.08106762 -0.041771643 -0.093688674 -0.07598949 0.034105282 0.092052884
0.20093003 -0.14482546 0.23062208 -0.09582067 -0.04275414 -0.19067034 0.14824314 0.15662624
-0.11767326 -0.18863045 -0.010830568 0.018087428 0.14205144 -0.22260655 -0.019214775 -0.10208269
-0.10948318 0.03347263 0.0036027532 -0.10742813 -0.11558367 0.22854125 -0.14906596 0.081148654

_middle_blocks.0.bias f4 [256]
00000000: 9a16 163d af26 8b3c cc31 5b3c 7d1f 2ebc
00000010: 4de7 1abc f5ac b2bb 0804 9b3a 548d 62bc
00000020: 40ad 3a3b 0063 283c 3562 703a 41ea 35bc
00000030: c6a1 9c3c 42ca b33a 7d19 943c f237 2cba
00000040: 0cd8 123c e623 ab3c b3e6 183c c570 fa3c
00000050: 9374 bd3b d791 45bc eee8 9c3b 1b96 11bc
00000060: 0645 c43c 7d3b b03c 9113 e0bb 5aa7 49bb
00000070: c788 98bb 6fdb f73a 0cd4 2abc be81 9b3b
00000080: ccee a53c 62d4 04bb 0862 513c 4655 b5bc
00000090: 42cb 0abd 9af9 6b3c 07ec b4bb dd49 0d3b
000000a0: 5ac5 053d e8eb 9fbc ef3b 80bc 0d65 c7bb
000000b0: 3f44 d5bc 9430 9a3c 4bcf e33c c3af bf3c
000000c0: 5b5a 403c 7562 533c 519f eebb a631 0d3b
000000d0: b751 67bc b775 3abc 0ffb 113d a51d 71bc
000000e0: 1709 c43b ba19 14bd 09e8 8cbc 4c10 2d3d
000000f0: 88ed b53c c45e 31bd d944 393c ae48 32bc
00000100: df19 d13c 7892 ec3a e47a 073c c180 003b
00000110: c440 993c 596c 13bc 3492 693c 55c7 243c
00000120: 63c7 0f3c abfe 7dbb 030a 6c3c 468f 43bb
00000130: d61c 1fbd cd3a 53bc 74de 153b 5143 03bc
00000140: 4273 243c 2e48 6739 49eb 2c3b 583b 0bbc
00000150: 5c85 30bc 5d6e 8db9 fb1d 03bd 2a1e 02bd
00000160: b540 c23c 3541 c03b 4778 c13b b228 ea3c
00000170: 608b 6e3c effd 433c 765f 0eba a1d0 ac3b
00000180: 5869 1e3b e49f 20bb 1df6 98bc 94c2 5b3c
00000190: d9dc ba3c 89e7 60bb 28a6 1f3b 52d8 1bbb
000001a0: 7c45 afbb 2dd1 3bbc b2fd 85bb e80f 953a
000001b0: 3c30 8cb9 9625 8ebc c215 8c3c e6b1 8fbc
000001c0: add9 99b9 d7ac 6cbc ed3d a83c 703c 533c
000001d0: 7308 47bc 417d d6ba ca58 04bd e8fb bf3c
000001e0: 2559 9abc 3ab1 5ebc 6419 8f3b b02b 8fbb
000001f0: c2ee 043d c1e4 ba3c 478b 1a3a 8275 e1ba
00000200: bc4b 9f3b 1db8 f5bb 2871 b33b 2002 593c
00000210: fc1e f2bb a64f c9bc 3c26 93bb 91a5 35bc
00000220: b987 23bc 577a 643b 3b60 b03c 4813 82bb
00000230: 6e23 0bbb c6f8 7dbc b6a8 bdbc eb3b 14bc
00000240: 2112 efbc 657c 20bc 84a8 b5bc bcfc 8b3c
00000250: 3c8a 173d cbb3 8dbb a921 323b b47e 713b
00000260: 98fe f73c b061 603c 87e8 61bc aaea 033d
00000270: d50d 983c c8de 9cba 24aa 273c ce6f a43b
00000280: cfe8 8b3c ac0c 023c 6ba9 683c 3c5b 613c
00000290: 6414 09bd 5352 9c3c 530f e83c b343 acbb
000002a0: d9dd b2bb 831d 273c a9dd 00bd 5cb4 79bc
000002b0: cc58 a63b 2990 2bbd dd14 f8bc 8d62 ef3b
000002c0: df25 343d 7e1b 9b3c 0cea da3c 2bde 5ebc
000002d0: 0bfb 343c be8e 913b 2a28 fc3b 9d6d 38bc
000002e0: 71ed 00bc 1de2 823b 3981 bdbb 2c54 773c
000002f0: 3871 9e3a 8087 ff3a acf3 e8bc 3a1a 3f3c
00000300: 0a05 243b 4af3 ddbc a73c a9bb 0707 7e3c
00000310: 04b8 e83b 9c94 32bb 02f3 e3ba 6552 633c
00000320: 3ee6 cb3c 17a2 ca3b 09df 42bc accd 6b3c
00000330: 7074 1e3c 4b89 4abc d5d3 41bb be14 613c
00000340: 8f56 c03c 37cc 4c3c ba87 dbbc 8e26 00bd
00000350: 3711 1abc a1cc 11bc 3173 20bc 1ad3 2cbc
00000360: 8620 523c 14a1 0fbd 5137 21bc ec89 cc3c
00000370: 8b86 913a 7168 bebb 409e 1cbd a55d b03b
00000380: a872 a83b d5be d8bc 4473 61bd 9b60 aeb9
00000390: 3596 a93a b37f ce3b d8db d93c 5090 bbbc
000003a0: 6742 a53b c685 b63b 6908 ea3b b734 003b
000003b0: 1918 d53b 0869 f83b 5d7f b53c 42e4 ab3c
000003c0: c9e7 e3bb 3fff bf3c 41ea 31bd 2ebc 8b3c
000003d0: 24b1 9bbc 2785 c6bb 06c0 1dbc 377f f139
000003e0: 7aea 3d3c 3479 92ba e0f6 b7bb 58bf 663c
000003f0: 2691 94bc 2ee5 2c3d 32ca 6239 b82d 863a
0.03664265 0.01698622 0.013378572 -0.010627625 -0.0094545605 -0.005452747 0.0011826763 -0.013827641
0.0028484613 0.01027751 0.00091699074 -0.011103214 0.019120108 0.0013716894 0.01807856 -0.0006569616
0.008962642 0.020891141 0.009332347 0.03057135 0.005781719 -0.012058697 0.0047885096 -0.008885886
0.023958694 0.021512741 -0.00683827 -0.0030769915 -0.004654977 0.0018910001 -0.0104265325 0.004745691
0.020255469 -0.0020268192 0.01277972 -0.022135388 -0.033885248 0.014402771 -0.0055213007 0.0021558919
0.032658912 -0.019521669 -0.015653579 -0.0060850442 -0.026033519 0.018821992 0.027808806 0.02339924
0.011740292 0.012901892 -0.0072821756 0.0021544485 -0.014118603 -0.0113806045 0.03563982 -0.01471654
0.005982529 -0.036157347 -0.017200487 0.04225187 0.02220799 -0.043303266 0.0113079185 -0.010881586
0.025525032 0.0018049022 0.0082690455 0.0019607993 0.01870764 -0.008998 0.014256049 0.01005729
0.008775565 -0.003875653 0.014406684 -0.0029840036 -0.03884586 -0.012892437 0.0022868188 -0.008011655
0.010037245 0.00022056766 0.0026385358 -0.008498035 -0.010773983 -0.00026975843 -0.032011013 -0.031767048
0.023712495 0.0058671483 0.0059042308 0.028583858 0.014559597 0.011962398 -0.0005431095 0.005273894
0.0024171676 -0.0024509365 -0.018672043 0.01341309 0.022810386 -0.0034317693 0.0024360511 -0.002378006
-0.0053488594 -0.011463446 -0.0040890807 0.0011372538 -0.00026738818 -0.017351907 0.017100219 -0.017540883
-0.00029344615 -0.014445505 0.020537341 0.012892827 -0.012148011 -0.0016364233 -0.03231124 0.023435548
-0.018841336 -0.013592059 0.0043670405 -0.0043692216 0.03245426 0.022814156 0.0005895388 -0.0017201158
0.004861323 -0.0074987547 0.0054761358 0.013245136 -0.0073889475 -0.024574112 -0.004490642 -0.011086837
-0.009981089 0.003486296 0.021530261 -0.0039695837 -0.0021230835 -0.015501207 -0.023151737 -0.009047489
-0.02918345 -0.009795283 -0.022175081 0.017088287 0.036997065 -0.0043244115 0.0027180708 0.0036849203
0.030272767 0.0136951655 -0.013788349 0.032206215 0.018561283 -0.001196825 0.010233436 0.005018211
0.017078785 0.0079375915 0.014200549 0.013754662 -0.03346671 0.019082224 0.02832762 -0.005257094
-0.005458575 0.010199907 -0.03146139 -0.015240755 0.0050765034 -0.04188553 -0.030283386 0.0073054493
0.04398143 0.018934008 0.02672293 -0.013602774 0.011046181 0.004442065 0.0076952176 -0.011256603
-0.00786911 0.00399424 -0.005783227 0.015095752 0.0012088185 0.0019495338 -0.028436504 0.011663968
0.0025027418 -0.027093548 -0.005164701 0.015504605 0.0071020145 -0.0027249223 -0.0017391148 0.013874625
0.024890061 0.0061838734 -0.011893996 0.014392298 0.009671316 -0.012361835 -0.0029575725 0.0137378555
0.023478774 0.0124998605 -0.026798118 -0.03128677 -0.009403518 -0.008898885 -0.009793089 -0.010548377
0.012825137 -0.035065725 -0.009839849 0.02496811 0.0011102719 -0.00581079 -0.038236856 0.005382257
0.005140621 -0.026458183 -0.055041566 -0.00033259843 0.0012938442 0.006301844 0.026594087 -0.022895962
0.005043316 0.0055701463 0.007142116 0.001956267 0.006503117 0.00758088 0.022155458 0.020982865
-0.006955121 0.02343714 -0.043436293 0.017057505 -0.019005366 -0.0060583535 -0.0096283015 0.00046061884
0.011591548 -0.0011175037 -0.0056141466 0.014083706 -0.018135618 0.04221075 0.00021628363 0.0010237014

_middle_blocks.1.weight f4 [256]
00000000: cc8a 883f 1cd2 823f 1e34 833f 6b1f 8e3f
00000010: 8b0e 813f a728 803f 8b75 833f 9363 8b3f
00000020: fb82 803f 0b9c 823f a49b 833f bcfb 843f
00000030: 30e5 8e3f 0816 a63f 5560 9b3f 1085 8b3f
00000040: ab73 853f e244 9d3f 03ed 873f cfba 833f
00000050: 000f 873f 7b1b 823f de56 853f 30ab 803f
00000060: 12c5 843f 593d 963f 72d4 803f 6063 813f
00000070: 28ef 8d3f 3c22 943f dea1 833f 9e7c 813f
00000080: a5b1 853f 0a1f 843f 35ba 8b3f 7dfd 853f
00000090: 7008 b43f 5c11 833f f833 853f e1ec 833f
000000a0: a630 b43f 470a 8d3f 26b1 803f 2759 843f
000000b0: c99e 993f 5e3c 883f 66c7 813f 77c3 863f
000000c0: 74e9 883f 07b4 833f f2be 823f 23bb 823f
000000d0: 80f0 933f 289c 833f 47ec b23f 051b 933f
000000e0: 0bc0 7e3f 6bf0 9c3f f492 8a3f b774 9c3f
000000f0: a8d8 953f e758 8d3f 90f4 813f 1dda 873f
00000100: f897 b73f 7341 823f d62e 883f 894b 863f
00000110: 294a bb3f 4c91 813f 314b 823f f5f7 893f
00000120: be1c 813f 0052 813f 7b43 833f b46d 863f
00000130: 3c16 8e3f 3cad b53f e475 823f c7b9 823f
00000140: 953b 8e3f f2f6 803f a8c9 803f 8e31 903f
00000150: 6bc3 833f d38b 833f 1150 883f d27c a53f
00000160: 6251 993f c217 813f 01a9 843f 998d 813f
00000170: 5076 833f 3f1d 7e3f 58bb 883f 474f 813f
00000180: a198 823f c078 873f 21da 873f 96d4 af3f
00000190: a7aa 8e3f 80af a33f 9c07 813f 877e 813f
000001a0: 83e4 803f 986f 8c3f 2723 a43f 9fe4 843f
000001b0: 396e 833f ef6e 993f 6310 943f 345a 883f
000001c0: 952a 803f e5cc 993f eb5d 823f cf65 823f
000001d0: a2f2 883f dc8f 8d3f d24b 853f 5c1b 8d3f
000001e0: 1ef2 803f 0dc6 833f 3269 843f cfcb 8d3f
000001f0: f5e4 903f 5e50 953f e2ec 813f 04fd 913f
00000200: 3a89 813f ebd9 983f 182a 813f 0cb1 833f
00000210: cdd3 813f f8ee 963f 3f25 833f fbbf 8d3f
00000220: f460 8a3f 110e 823f 521b 873f 1525 823f
00000230: 78f0 833f b0cd 913f 3966 823f 6c6e 813f
00000240: 2610 8f3f 38b6 823f 937f 8a3f 67ba 903f
00000250: dcc2 8a3f 591e 833f 0220 893f f1b4 893f
00000260: cc00 933f d4fd 8a3f 76b0 853f 1370 8f3f
00000270: 4896 873f c8c9 9e3f 1bef 843f 5fe7 8c3f
00000280: ae1b 843f 2144 813f d52c 823f 38a6 813f
00000290: 9406 b33f deaf 993f 68a7 873f 1278 8d3f
000002a0: 741a 893f 5853 933f 3473 8a3f 1fe8 8b3f
000002b0: 6b23 823f c4d5 9d3f d1d5 8a3f ff82 853f
000002c0: e148 903f 3678 993f 0cdd 863f f6b7 803f
000002d0: 1a0f 7f3f 050e 823f bee7 9e3f 2e6b 863f
000002e0: 6bca 8c3f 0468 8b3f 6f2a 843f cf68 943f
000002f0: 517e 813f 97d4 813f 0688 973f 7c11 963f
00000300: 35ef 863f 3551 a83f b5f3 973f 260c 883f
00000310: c87f 833f a6c6 823f 8987 903f 04c2 803f
00000320: 3833 833f 2aa8 893f 9216 843f 299d 813f
00000330: e6a1 833f e4de 883f fd84 8b3f cb5c 7e3f
00000340: 3cc6 8b3f 0cf8 8a3f 3ba3 863f c85c a43f
00000350: 3552 8c3f e82a cf3f 6cc3 a03f 7452 813f
00000360: fa2f 863f 5e73 8c3f 6e92 803f 1986 923f
00000370: 9162 823f df5c 833f 61a9 7f3f 0be0 823f
00000380: 2e5f 883f 9d42 8b3f 553e 823f 3716 873f
00000390: 4a74 813f 98bf 843f 2b1c 8d3f cee9 8f3f
000003a0: 98ae 823f 4ba3 803f e90b 803f 5b78 803f
000003b0: c398 8a3f a266 803f 5bbf 853f 326b 903f
000003c0: 5839 813f d4b5 b23f e8ae 823f 62c7 883f
000003d0: ae3c 853f 077d 803f 112d 813f dd9b a23f
000003e0: 99d1 813f d6a7 813f b72d 853f 4a40 8a3f
000003f0: 1bd1 813f 7db1 883f a2d3 853f 1bba 843f
1.0667357 1.022037 1.025028 1.1103338 1.0082563 1.0012406 1.0270246 1.0889763
1.0039972 1.020387 1.0281873 1.0389323 1.1163692 1.2975473 1.2138773 1.0899982
1.0425924 1.2286646 1.0619205 1.0291384 1.0551453 1.0164636 1.0417135 1.0052242
1.0372641 1.1737472 1.0064833 1.0108452 1.108861 1.1572948 1.0283773 1.0116155
1.0444838 1.0321972 1.0916201 1.0467983 1.4065075 1.0239673 1.0406485 1.0306665
1.4077346 1.1018761 1.0054061 1.0339707 1.2001582 1.0643423 1.0138977 1.0528401
1.0696244 1.0289315 1.0214522 1.021336 1.155777 1.028203 1.3978356 1.1492621
0.99511784 1.226087 1.0826097 1.2223119 1.1706743 1.1042756 1.015276 1.0613438
1.4343252 1.0176224 1.0639293 1.0491802 1.4632007 1.0122466 1.0179197 1.0778795
1.0086896 1.010315 1.0254968 1.0502229 1.1100535 1.4193492 1.0192227 1.0212945
1.1111933 1.0075362 1.0061541 1.1265123 1.0294012 1.0277046 1.0649434 1.2928717
1.1977961 1.0085375 1.0364076 1.0121337 1.0270481 0.99263376 1.0682173 1.0102319
1.0202829 1.0583725 1.0613443 1.3736751 1.1145829 1.2787933 1.0080447 1.0116738
1.0069736 1.0971556 1.2823228 1.038227 1.0268012 1.1986979 1.1567501 1.0652528
1.0012995 1.2015654 1.0184911 1.018732 1.0699046 1.1059527 1.0413764 1.1023974
1.0073888 1.0294815 1.0344603 1.1077822 1.1319872 1.1665151 1.0150416 1.1405339
1.0120003 1.1941503 1.0090971 1.0288405 1.0142761 1.1791677 1.0245742 1.1074213
1.0810838 1.0160543 1.0555212 1.0167567 1.030776 1.1390896 1.0187446 1.0111823
1.1176803 1.0211859 1.0820183 1.1306885 1.0840716 1.0243636 1.0712893 1.0758344
1.1484618 1.0858712 1.0444477 1.1206077 1.0592737 1.2405329 1.0385469 1.1008109
1.0320947 1.0098916 1.0169932 1.0128851 1.3986382 1.2006795 1.0597963 1.1052268
1.0711198 1.150981 1.0816407 1.0930213 1.0167059 1.2330861 1.0846502 1.0430602
1.1272241 1.198981 1.0536208 1.005614 0.9963242 1.0160528 1.2414472 1.0501459
1.0999273 1.0891118 1.032545 1.1594485 1.0116674 1.0143002 1.1838386 1.1724086
1.054175 1.3149782 1.1871248 1.0628707 1.0273371 1.0216873 1.1291362 1.0059209
1.0250006 1.0754445 1.0319388 1.0126086 1.0283782 1.0693021 1.089996 0.9936034
1.0919871 1.0856948 1.0518564 1.2840815 1.0962588 1.6184969 1.2559638 1.0103288
1.0483391 1.0972707 1.0044687 1.1447173 1.018633 1.0262717 0.99867827 1.0224622
1.0654047 1.0879704 1.0175272 1.0553654 1.0113614 1.037097 1.1024221 1.1243227
1.0209532 1.0049833 1.0003635 1.003673 1.0827869 1.0031321 1.0449022 1.1282713
1.0095625 1.396174 1.0209627 1.0685847 1.0409143 1.0038155 1.0091878 1.2703816
1.0142089 1.0129344 1.0404576 1.080087 1.0141939 1.0679165 1.045521 1.0369295

_middle_blocks.1.bias f4 [256]
00000000: f4fd 133d 6941 8b3c d97a 583c 0fda 2abc
00000010: e4f0 1bbc 7e0d b3bb b2f9 913a eed6 5fbc
00000020: c439 3c3b 20fc 253c 2a78 693a 7e4e 31bc
00000030: 61e2 963c 2fe2 043b 6cc7 903c 6384 e9b9
00000040: fe8e 0c3c dbc7 a43c f1da 113c 29ab f73c
00000050: a58b c43b d5bb 44bc 3f57 963b 738b 11bc
00000060: 4090 c33c d845 ac3c 14d6 dfbb f215 4bbb
00000070: 1aaf 74bb 7492 dd3a fcec 28bc ff9b 983b
00000080: 7eb8 a23c 6843 09bb 20a0 483c 2670 b3bc
00000090: ed18 02bd 6f40 673c 42ba afbb 6a1d 103b
000000a0: b9e9 f43c 2208 96bc 260a 80bc e7b7 c5bb
000000b0: 8bf2 cebc 1ccd 993c 3503 e33c c648 ba3c
000000c0: 017d 3a3c 1ac6 513c 874d edbb 02e6 0d3b
000000d0: 6ae7 60bc 0ed9 37bc a281 0f3d 8c49 68bc
000000e0: b1db c33b 44db 0abd 248f 86bc 4804 1b3d
000000f0: 2d44 b33c f8b7 2cbd 66d2 343c 883a 2abc
00000100: 74dd cb3c fa58 ec3a 527d 043c 8f8c 0a3b
00000110: a8ed 933c 6772 12bc 78aa 673c 008c 243c
00000120: 9328 0f3c 656e 7cbb a58d 683c 1c33 3dbb
00000130: 3b93 1ebd eb60 48bc 105c 0c3b 2502 03bc
00000140: 366f 193c abba 6539 f35d 2a3b 611c 09bc
00000150: 50fa 2ebc 7f4d 83b9 31fc 01bd ea03 e5bc
00000160: aa6c bd3c 96b7 c03b bcbc c53b c49c e93c
00000170: 95dc 6c3c 096a 443c 7af6 41ba 0df5 ab3b
00000180: c238 1b3b b86e 1cbb a03e 95bc 4278 453c
00000190: cc12 b63c 6a24 7fbb edab 1d3b fd17 1ebb
000001a0: 4857 afbb 147b 38bc 511b 7bbb ed5f 843a
000001b0: ac50 53b9 95ee 85bc f34a 883c 5a6b 8ebc
000001c0: 4cce 9fb9 8e25 5fbc 4e77 a63c 1ec8 523c
000001d0: 58ff 41bc 1f63 ceba b28b 01bd 7fcb bb3c
000001e0: 296a 99bc fe0d 5cbc d922 8d3b 80fa 9ebb
000001f0: b79d 023d a094 b23c d280 103a 0460 e6ba
00000200: 8671 9d3b 5b06 e2bb 45ed b23b 8f56 583c
00000210: bfc4 f0bb 0fff bcbc 02ad 91bb d353 32bc
00000220: d85e 1bbc c59f 693b d7ec ac3c 84ba 81bb
00000230: 5099 08bb d607 6fbc 9e77 bcbc 0b56 14bc
00000240: 2a72 e9bc 1256 1ebc d698 b1bc a95c 823c
00000250: 9167 153d 4892 8bbb da26 1e3b 433d 733b
00000260: a600 ee3c 41af 5c3c 478a 60bc 61da 013d
00000270: 9781 963c b806 67ba 80ac 223c 1d52 b03b
00000280: b101 8b3c 85be 033c d834 673c 982a 613c
00000290: 6a40 06bd 85ae 943c 8845 e53c 8bcf a9bb
000002a0: 6612 a7bb 0a55 213c 7627 fcbc b7cd 7abc
000002b0: 47b7 a43b 0db8 0fbd ebf3 ebbc 6c63 ec3b
000002c0: 6fc1 333d 1604 953c 9dad d53c 3f73 5dbc
000002d0: 3604 363c 75b5 913b 8e0a 003c 0341 34bc
000002e0: 8582 fcbb 2f73 783b bf00 b9bb 3778 763c
000002f0: 9ea0 9d3a 60e3 fa3a 0e41 e4bc a796 353c
00000300: c790 273b b973 d7bc 7e03 9abb 9501 7b3c
00000310: ab93 e53b ed16 33bb 1976 02bb dfad 623c
00000320: 1e91 ca3c 10ee b93b fa92 40bc 2df1 693c
00000330: 47e6 1f3c a9e1 46bc 7f75 22bb 08f6 603c
00000340: 02e5 be3c 938c 443c 5194 d9bc ef48 e9bc
00000350: b7c3 18bc 3915 07bc 12ec 1fbc e8df 2bbc
00000360: 194a 4e3c eaab 0dbd ffbd 20bc 26e0 c63c
00000370: 7115 923a f22b b3bb a2b4 1cbd aa9e af3b
00000380: 168d a73b 5d67 d3bc c99a 60bd a6d1 ceb9
00000390: fac8 a83a 5464 d13b 29a3 d63c ea8e b1bc
000003a0: 84b9 a43b 3ae3 b13b 48f9 e93b 0728 003b
000003b0: 5347 df3b 0bf6 f93b 9257 b23c 0c43 a83c
000003c0: 0343 e3bb efe6 b03c dde0 32bd 9b91 893c
000003d0: eb71 99bc 188e c5bb 76a7 1dbc 1cf8 1639
000003e0: 4074 3d3c e124 96ba 5e76 b0bb 49bd 653c
000003f0: 1fe0 93bc 4bde 2b3d f2dc 5a39 e151 833a
0.03613086 0.016998963 0.013212883 -0.010427966 -0.009517882 -0.005464255 0.0011137037 -0.013662083
0.0028720954 0.010130912 0.00089061505 -0.010821937 0.018418493 0.0020276417 0.017673217 -0.0004453986
0.008579014 0.02011483 0.008902297 0.030232983 0.0059980922 -0.012007673 0.0045880373 -0.008883345
0.023872495 0.021029398 -0.00683094 -0.0030988422 -0.0037335814 0.0016904608 -0.010310408 0.004657268
0.019863363 -0.0020944718 0.012245208 -0.021904062 -0.031762052 0.014114483 -0.00536278 0.0021990188
0.029896604 -0.018314425 -0.01562984 -0.0060338858 -0.025262138 0.018774562 0.02771149 0.02273978
0.011382342 0.012803579 -0.007241908 0.0021651988 -0.013727048 -0.011221183 0.035035737 -0.014177691
0.005977117 -0.033900514 -0.016425677 0.03784588 0.021883095 -0.042167634 0.011036491 -0.0103899315
0.02488587 0.0018031888 0.008086519 0.0021140908 0.01805766 -0.008938408 0.014139764 0.010043144
0.008737701 -0.0038517949 0.014193927 -0.0028869575 -0.03871463 -0.012230138 0.0021417178 -0.007996117
0.009364894 0.00021908681 0.002599594 -0.008368582 -0.010679796 -0.00025044006 -0.03173465 -0.027955968
0.023123104 0.00588126 0.006034462 0.028517134 0.014456888 0.011988171 -0.00073990936 0.005247718
0.0023684953 -0.0023869704 -0.018218338 0.0120525975 0.02222576 -0.0038931617 0.0024058775 -0.0024123185
-0.005350981 -0.011259813 -0.0038315842 0.0010099389 -0.0002015258 -0.016349116 0.016637301 -0.017385174
-0.00030480546 -0.013619794 0.02032056 0.0128650945 -0.011840664 -0.0015746093 -0.031627364 0.022924183
-0.018727379 -0.01343107 0.0043071327 -0.0048516393 0.03188869 0.021799386 0.000551236 -0.0017576222
0.004804793 -0.0068977303 0.0054604136 0.013204231 -0.0073476727 -0.02307084 -0.004445673 -0.010884243
-0.009483062 0.0035648209 0.021109028 -0.003959002 -0.0020843334 -0.014589271 -0.023006257 -0.009053717
-0.02849682 -0.009664075 -0.021679323 0.015913324 0.03647572 -0.0042593814 0.0024132044 0.0037115372
0.029053044 0.013469518 -0.013704843 0.031702403 0.01837234 -0.0008812952 0.0099288225 0.0053808824
0.01696858 0.008041029 0.01411172 0.013743065 -0.032776274 0.018149624 0.027987257 -0.0051822118
-0.005098629 0.009846935 -0.030780535 -0.015307835 0.005026731 -0.035087634 -0.028802833 0.0072140004
0.043885645 0.018190425 0.026083762 -0.013516246 0.011109402 0.00444668 0.007815016 -0.011001828
-0.007705989 0.0037910452 -0.005645841 0.01504331 0.0012026017 0.0019141249 -0.027863052 0.011083282
0.0025568472 -0.026300298 -0.0047001233 0.015320201 0.007006129 -0.0027326897 -0.0019906817 0.013835399
0.0247274 0.005674131 -0.011753792 0.014278692 0.009759492 -0.0121387625 -0.0024789271 0.013730533
0.023302559 0.011996406 -0.02655998 -0.02847716 -0.009324006 -0.008244806 -0.009760873 -0.010490395
0.012590908 -0.03458778 -0.009810924 0.024276804 0.0011145306 -0.005467885 -0.038258202 0.0053594904
0.0051132543 -0.025806123 -0.054835115 -0.00039447582 0.0012877278 0.006390134 0.026200848 -0.021674592
0.005026998 0.005428699 0.0071403123 0.0019555108 0.0068139224 0.0076282076 0.021770272 0.020539783
-0.0069354787 0.021594493 -0.043671478 0.016793063 -0.018731078 -0.006028902 -0.009622445 0.00014397543
0.011563361 -0.0011455083 -0.005385204 0.01402218 -0.018051205 0.041960042 0.00020872409 0.0010018909

_middle_blocks.1.running_mean f4 [256]
00000000: 0000 0000 0000 0000 0000 0000 0000 0000
00000010: 0000 0000 0000 0000 0000 0000 0000 0000
00000020: 0000 0000 0000 0000 0000 0000 0000 0000
00000030: 0000 0000 0000 0000 0000 0000 0000 0000
00000040: 0000 0000 0000 0000 0000 0000 0000 0000
00000050: 0000 0000 0000 0000 0000 0000 0000 0000
00000060: 0000 0000 0000 0000 0000 0000 0000 0000
00000070: 0000 0000 0000 0000 0000 0000 0000 0000
00000080: 0000 0000 0000 0000 0000 0000 0000 0000
00000090: 0000 0000 0000 0000 0000 0000 0000 0000
000000a0: 0000 0000 0000 0000 0000 0000 0000 0000
000000b0: 0000 0000 0000 0000 0000 0000 0000 0000
000000c0: 0000 0000 0000 0000 0000 0000 0000 0000
000000d0: 0000 0000 0000 0000 0000 0000 0000 0000
000000e0: 0000 0000 0000 0000 0000 0000 0000 0000
000000f0: 0000 0000 0000 0000 0000 0000 0000 0000
00000100: 0000 0000 0000 0000 0000 0000 0000 0000
00000110: 0000 0000 0000 0000 0000 0000 0000 0000
00000120: 0000 0000 0000 0000 0000 0000 0000 0000
00000130: 0000 0000 0000 0000 0000 0000 0000 0000
00000140: 0000 0000 0000 0000 0000 0000 0000 0000
00000150: 0000 0000 0000 0000 0000 0000 0000 0000
00000160: 0000 0000 0000 0000 0000 0000 0000 0000
00000170: 0000 0000 0000 0000 0000 0000 0000 0000
00000180: 0000 0000 0000 0000 0000 0000 0000 0000
00000190: 0000 0000 0000 0000 0000 0000 0000 0000
000001a0: 0000 0000 0000 0000 0000 0000 0000 0000
000001b0: 0000 0000 0000 0000 0000 0000 0000 0000
000001c0: 0000 0000 0000 0000 0000 0000 0000 0000
000001d0: 0000 0000 0000 0000 0000 0000 0000 0000
000001e0: 0000 0000 0000 0000 0000 0000 0000 0000
000001f0: 0000 0000 0000 0000 0000 0000 0000 0000
00000200: 0000 0000 0000 0000 0000 0000 0000 0000
00000210: 0000 0000 0000 0000 0000 0000 0000 0000
00000220: 0000 0000 0000 0000 0000 0000 0000 0000
00000230: 0000 0000 0000 0000 0000 0000 0000 0000
00000240: 0000 0000 0000 0000 0000 0000 0000 0000
00000250: 0000 0000 0000 0000 0000 0000 0000 0000
00000260: 0000 0000 0000 0000 0000 0000 0000 0000
00000270: 0000 0000 0000 0000 0000 0000 0000 0000
00000280: 0000 0000 0000 0000 0000 0000 0000 0000
00000290: 0000 0000 0000 0000 0000 0000 0000 0000
000002a0: 0000 0000 0000 0000 0000 0000 0000 0000
000002b0: 0000 0000 0000 0000 0000 0000 0000 0000
000002c0: 0000 0000 0000 0000 0000 0000 0000 0000
000002d0: 0000 0000 0000 0000 0000 0000 0000 0000
000002e0: 0000 0000 0000 0000 0000 0000 0000 0000
000002f0: 0000 0000 0000 0000 0000 0000 0000 0000
00000300: 0000 0000 0000 0000 0000 0000 0000 0000
00000310: 0000 0000 0000 0000 0000 0000 0000 0000
00000320: 0000 0000 0000 0000 0000 0000 0000 0000
00000330: 0000 0000 0000 0000 0000 0000 0000 0000
00000340: 0000 0000 0000 0000 0000 0000 0000 0000
00000350: 0000 0000 0000 0000 0000 0000 0000 0000
00000360: 0000 0000 0000 0000 0000 0000 0000 0000
00000370: 0000 0000 0000 0000 0000 0000 0000 0000
00000380: 0000 0000 0000 0000 0000 0000 0000 0000
00000390: 0000 0000 0000 0000 0000 0000 0000 0000
000003a0: 0000 0000 0000 0000 0000 0000 0000 0000
000003b0: 0000 0000 0000 0000 0000 0000 0000 0000
000003c0: 0000 0000 0000 0000 0000 0000 0000 0000
000003d0: 0000 0000 0000 0000 0000 0000 0000 0000
000003e0: 0000 0000 0000 0000 0000 0000 0000 0000
000003f0: 0000 0000 0000 0000 0000 0000 0000 0000
0.0 0.0 0.0 0.0 0.0 0.0 0.0 0.0
0.0 0.0 0.0 0.0 0.0 0.0 0.0 0.0
0.0 0.0 0.0 0.0 0.0 0.0 0.0 0.0
0.0 0.0 0.0 0.0 0.0 0.0 0.0 0.0
0.0 0.0 0.0 0.0 0.0 0.0 0.0 0.0
0.0 0.0 0.0 0.0 0.0 0.0 0.0 0.0
0.0 0.0 0.0 0.0 0.0 0.0 0.0 0.0
0.0 0.0 0.0 0.0 0.0 0.0 0.0 0.0
0.0 0.0 0.0 0.0 0.0 0.0 0.0 0.0
0.0 0.0 0.0 0.0 0.0 0.0 0.0 0.0
0.0 0.0 0.0 0.0 0.0 0.0 0.0 0.0
0.0 0.0 0.0 0.0 0.0 0.0 0.0 0.0
0.0 0.0 0.0 0.0 0.0 0.0 0.0 0.0
0.0 0.0 0.0 0.0 0.0 0.0 0.0 0.0
0.0 0.0 0.0 0.0 0.0 0.0 0.0 0.0
0.0 0.0 0.0 0.0 0.0 0.0 0.0 0.0
0.0 0.0 0.0 0.0 0.0 0.0 0.0 0.0
0.0 0.0 0.0 0.0 0.0 0.0 0.0 0.0
0.0 0.0 0.0 0.0 0.0 0.0 0.0 0.0
0.0 0.0 0.0 0.0 0.0 0.0 0.0 0.0
0.0 0.0 0.0 0.0 0.0 0.0 0.0 0.0
0.0 0.0 0.0 0.0 0.0 0.0 0.0 0.0
0.0 0.0 0.0 0.0 0.0 0.0 0.0 0.0
0.0 0.0 0.0 0.0 0.0 0.0 0.0 0.0
0.0 0.0 0.0 0.0 0.0 0.0 0.0 0.0
0.0 0.0 0.0 0.0 0.0 0.0 0.0 0.0
0.0 0.0 0.0 0.0 0.0 0.0 0.0 0.0
0.0 0.0 0.0 0.0 0.0 0.0 0.0 0.0
0.0 0.0 0.0 0.0 0.0 0.0 0.0 0.0
0.0 0.0 0.0 0.0 0.0 0.0 0.0 0.0
0.0 0.0 0.0 0.0 0.0 0.0 0.0 0.0
0.0 0.0 0.0 0.0 0.0 0.0 0.0 0.0

_middle_blocks.1.running_var f4 [256]
00000000: 0000 803f 0000 803f 0000 803f 0000 803f
00000010: 0000 803f 0000 803f 0000 803f 0000 803f
00000020: 0000 803f 0000 803f 0000 803f 0000 803f
00000030: 0000 803f 0000 803f 0000 803f 0000 803f
00000040: 0000 803f 0000 803f 0000 803f 0000 803f
00000050: 0000 803f 0000 803f 0000 803f 0000 803f
00000060: 0000 803f 0000 803f 0000 803f 0000 803f
00000070: 0000 803f 0000 803f 0000 803f 0000 803f
00000080: 0000 803f 0000 803f 0000 803f 0000 803f
00000090: 0000 803f 0000 803f 0000 803f 0000 803f
000000a0: 0000 803f 0000 803f 0000 803f 0000 803f
000000b0: 0000 803f 0000 803f 0000 803f 0000 803f
000000c0: 0000 803f 0000 803f 0000 803f 0000 803f
000000d0: 0000 803f 0000 803f 0000 803f 0000 803f
000000e0: 0000 803f 0000 803f 0000 803f 0000 803f
000000f0: 0000 803f 0000 803f 0000 803f 0000 803f
00000100: 0000 803f 0000 803f 0000 803f 0000 803f
00000110: 0000 803f 0000 803f 0000 803f 0000 803f
00000120: 0000 803f 0000 803f 0000 803f 0000 803f
00000130: 0000 803f 0000 803f 0000 803f 0000 803f
00000140: 0000 803f 0000 803f 0000 803f 0000 803f
00000150: 0000 803f 0000 803f 0000 803f 0000 803f
00000160: 0000 803f 0000 803f 0000 803f 0000 803f
00000170: 0000 803f 0000 803f 0000 803f 0000 803f
00000180: 0000 803f 0000 803f 0000 803f 0000 803f
00000190: 0000 803f 0000 803f 0000 803f 0000 803f
000001a0: 0000 803f 0000 803f 0000 803f 0000 803f
000001b0: 0000 803f 0000 803f 0000 803f 0000 803f
000001c0: 0000 803f 0000 803f 0000 803f 0000 803f
000001d0: 0000 803f 0000 803f 0000 803f 0000 803f
000001e0: 0000 803f 0000 803f 0000 803f 0000 803f
000001f0: 0000 803f 0000 803f 0000 803f 0000 803f
00000200: 0000 803f 0000 803f 0000 803f 0000 803f
00000210: 0000 803f 0000 803f 0000 803f 0000 803f
00000220: 0000 803f 0000 803f 0000 803f 0000 803f
00000230: 0000 803f 0000 803f 0000 803f 0000 803f
00000240: 0000 803f 0000 803f 0000 803f 0000 803f
00000250: 0000 803f 0000 803f 0000 803f 0000 803f
00000260: 0000 803f 0000 803f 0000 803f 0000 803f
00000270: 0000 803f 0000 803f 0000 803f 0000 803f
00000280: 0000 803f 0000 803f 0000 803f 0000 803f
00000290: 0000 803f 0000 803f 0000 803f 0000 803f
000002a0: 0000 803f 0000 803f 0000 803f 0000 803f
000002b0: 0000 803f 0000 803f 0000 803f 0000 803f
000002c0: 0000 803f 0000 803f 0000 803f 0000 803f
000002d0: 0000 803f 0000 803f 0000 803f 0000 803f
000002e0: 0000 803f 0000 803f 0000 803f 0000 803f
000002f0: 0000 803f 0000 803f 0000 803f 0000 803f
00000300: 0000 803f 0000 803f 0000 803f 0000 803f
00000310: 0000 803f 0000 803f 0000 803f 0000 803f
00000320: 0000 803f 0000 803f 0000 803f 0000 803f
00000330: 0000 803f 0000 803f 0000 803f 0000 803f
00000340: 0000 803f 0000 803f 0000 803f 0000 803f
00000350: 0000 803f 0000 803f 0000 803f 0000 803f
00000360: 0000 803f 0000 803f 0000 803f 0000 803f
00000370: 0000 803f 0000 803f 0000 803f 0000 803f
00000380: 0000 803f 0000 803f 0000 803f 0000 803f
00000390: 0000 803f 0000 803f 0000 803f 0000 803f
000003a0: 0000 803f 0000 803f 0000 803f 0000 803f
000003b0: 0000 803f 0000 803f 0000 803f 0000 803f
000003c0: 0000 803f 0000 803f 0000 803f 0000 803f
000003d0: 0000 803f 0000 803f 0000 803f 0000 803f
000003e0: 0000 803f 0000 803f 0000 803f 0000 803f
000003f0: 0000 803f 0000 803f 0000 803f 0000 803f
1.0 1.0 1.0 1.0 1.0 1.0 1.0 1.0
1.0 1.0 1.0 1.0 1.0 1.0 1.0 1.0
1.0 1.0 1.0 1.0 1.0 1.0 1.0 1.0
1.0 1.0 1.0 1.0 1.0 1.0 1.0 1.0
1.0 1.0 1.0 1.0 1.0 1.0 1.0 1.0
1.0 1.0 1.0 1.0 1.0 1.0 1.0 1.0
1.0 1.0 1.0 1.0 1.0 1.0 1.0 1.0
1.0 1.0 1.0 1.0 1.0 1.0 1.0 1.0
1.0 1.0 1.0 1.0 1.0 1.0 1.0 1.0
1.0 1.0 1.0 1.0 1.0 1.0 1.0 1.0
1.0 1.0 1.0 1.0 1.0 1.0 1.0 1.0
1.0 1.0 1.0 1.0 1.0 1.0 1.0 1.0
1.0 1.0 1.0 1.0 1.0 1.0 1.0 1.0
1.0 1.0 1.0 1.0 1.0 1.0 1.0 1.0
1.0 1.0 1.0 1.0 1.0 1.0 1.0 1.0
1.0 1.0 1.0 1.0 1.0 1.0 1.0 1.0
1.0 1.0 1.0 1.0 1.0 1.0 1.0 1.0
1.0 1.0 1.0 1.0 1.0 1.0 1.0 1.0
1.0 1.0 1.0 1.0 1.0 1.0 1.0 1.0
1.0 1.0 1.0 1.0 1.0 1.0 1.0 1.0
1.0 1.0 1.0 1.0 1.0 1.0 1.0 1.0
1.0 1.0 1.0 1.0 1.0 1.0 1.0 1.0
1.0 1.0 1.0 1.0 1.0 1.0 1.0 1.0
1.0 1.0 1.0 1.0 1.0 1.0 1.0 1.0
1.0 1.0 1.0 1.0 1.0 1.0 1.0 1.0
1.0 1.0 1.0 1.0 1.0 1.0 1.0 1.0
1.0 1.0 1.0 1.0 1.0 1.0 1.0 1.0
1.0 1.0 1.0 1.0 1.0 1.0 1.0 1.0
1.0 1.0 1.0 1.0 1.0 1.0 1.0 1.0
1.0 1.0 1.0 1.0 1.0 1.0 1.0 1.0
1.0 1.0 1.0 1.0 1.0 1.0 1.0 1.0
1.0 1.0 1.0 1.0 1.0 1.0 1.0 1.0
