results/Contrast-sota/DCRL/rl2/NetParams/Actor.pkl (torch, 862949 bytes, 11 tensors)

_input_layer.0.weight f4 [64, 8]
000000 82 e5 c0 3d c4 9a 69 3a a8 7f a1 3b 5a 96 a2 3b
       0.09418775 0.00089113065 0.004928548 0.004961771
000010 ed 1a 4a bc c5 82 e5 bd 3f 6b b7 3d 64 04 27 be
       -0.012335521 -0.11206583 0.089560024 -0.16310269
000020 12 c2 6d 3c b1 5f 2a 3c 97 62 22 3d c0 0a 21 3c
       0.014511602 0.010398791 0.039644804 0.009829223
000030 48 cc 9c bd 52 66 08 3e 2d ec 7c 3d 18 f3 66 bb
       -0.07656151 0.13320282 0.061748672 -0.003524011
000040 fd e9 f8 bc 9b 3e 5f 3d 05 a9 0c 3d ee 70 14 bd
       -0.030385012 0.054503065 0.034340877 -0.03624051
000050 df 54 09 3e d8 70 22 bd 1c a5 10 be c7 fc a3 3d
       0.13411282 -0.039658397 -0.14125484 0.08007198
000060 b1 c5 35 3d 05 73 98 bd f5 40 23 3d 3c ef a4 bd
       0.044377986 -0.07443813 0.03985687 -0.08053443
000070 29 c4 99 bd a9 37 7a bd 2c 13 cb 3d 88 48 c5 3d
       -0.07508118 -0.061088238 0.09915766 0.09632975
000080 17 10 28 3c 93 91 a1 bb e3 da a4 3d 13 46 de 3d
       0.010257742 -0.004930684 0.08049562 0.10853209
000090 aa 38 af bd 62 fb c9 3c 68 06 23 bd 1a 86 13 3d
       -0.0855573 0.024656001 -0.03980103 0.03601656
0000a0 2a b0 02 3d ed 2e 1d 3e b2 12 92 3b 16 90 df 3d
       0.031906284 0.15349932 0.004457795 0.10916154
0000b0 ca 09 af bd a0 fc 72 3d 68 72 16 bd d6 a2 86 bb
       -0.08546789 0.059322953 -0.0367302 -0.004108767
0000c0 41 32 2d bc 94 63 a8 bd a6 84 1d bc b8 dd a5 3d
       -0.0105710635 -0.08222118 -0.009614145 0.0809893
0000d0 87 23 b6 3c 94 be 5a 3d c4 0f 0b bb 95 0b 07 be
       0.022233738 0.053404406 -0.0021219114 -0.13188012
0000e0 24 70 e5 bd 43 54 34 3e 1a c0 ca ba e7 69 df 3d
       -0.1120303 0.17610268 -0.0015468628 0.10908871
0000f0 f7 12 33 be 16 28 8a bd b8 f9 e6 3d da 21 5e 3d
       -0.17487703 -0.06745927 0.11278099 0.054231502
000100 38 99 0d be 24 eb 92 bc b5 dc 5c bd 27 9e 09 be
       -0.1382798 -0.01793439 -0.05392142 -0.13439237
000110 4c 80 6f 3c e7 3e 03 be a8 75 45 be 75 33 13 3e
       0.014617991 -0.12816964 -0.19283164 0.14375098
000120 38 80 b3 3d 64 33 d1 bc 3c 66 09 3e 39 0d c8 3c
       0.0876469 -0.0255372 0.13417906 0.024420368
000130 c1 be 16 be c0 32 33 3e 8a c7 b9 3d 49 3d 23 3d
       -0.14721204 0.17499828 0.09071262 0.039853368
000140 51 20 18 3d 86 c5 39 3d 35 c6 97 3b a5 4f 8b bc
       0.037140194 0.04535439 0.0046317824 -0.01700575
000150 63 1c 03 3e fd 32 82 3d 3a c6 fd bd 2d 94 0d be
       0.12803797 0.063573815 -0.12391324 -0.13826056
000160 95 de 34 3d 25 89 8c 3d 53 f3 17 be aa 86 bd bc
       0.044157583 0.06862096 -0.14838915 -0.023135502
000170 83 ac 73 bc 5f 64 25 bd 2f 55 09 3d 57 36 3b 3d
       -0.014872673 -0.040378924 0.033528503 0.04570612
000180 19 9b 04 3d 88 bf a3 3d bf 7e cb bd 0c 1b 05 be
       0.032374475 0.07995516 -0.09936284 -0.12998599
000190 05 34 f9 3d ef b6 5d bd 9c dc dd bc 31 a3 26 be
       0.12168125 -0.054129537 -0.027082734 -0.1627319
0001a0 97 19 de bc f4 5b 65 bd e1 6e b7 bd 3f b2 e8 bc
       -0.027111812 -0.055995896 -0.08956695 -0.028405307
0001b0 d4 c2 ff bc b4 3d fc bd d4 fc 04 3d e5 0f df 3d
       -0.031220831 -0.123164564 0.03246768 0.108917035
0001c0 44 73 89 3d b4 76 ad 3d 8e d2 4d bd 43 60 c9 3b
       0.06711438 0.084699064 -0.05024963 0.0061455085
0001d0 3a 68 b4 bd 1d f7 58 bd 11 de 3b 3d 77 e7 45 bd
       -0.08808942 -0.05297004 0.045866076 -0.048316445
0001e0 67 02 78 bc 28 cc 06 3e 0a 53 bd bd b8 d1 a2 bd
       -0.0151372915 0.13163817 -0.09244354 -0.07950157
0001f0 70 56 65 bb 60 f4 58 3e 22 a9 47 bd ad 19 2d bd
       -0.0034994148 0.21186972 -0.048745282 -0.042260814
000200 7c a3 1e 3e 4b aa 0d be 00 72 94 3d 3a 49 30 3d
       0.15492052 -0.13834493 0.07248306 0.043038584
000210 e3 6f c7 bc 36 71 30 3d f5 89 dc bc 55 1f 56 3d
       -0.024345344 0.043076716 -0.026921252 0.052275974
000220 8b 93 d6 bd 86 6f d6 3d 85 fd 0b 3e f8 e8 30 bd
       -0.1047736 0.1047049 0.13670929 -0.043190926
000230 f2 ce 6f bc 5d 25 19 bd 41 6a 67 3d 27 03 6f bb
       -0.014636742 -0.037389148 0.056497816 -0.0036470385
000240 63 75 0e be 37 d7 2c 3c a9 31 63 3d 79 35 b6 3d
       -0.13911967 0.010549358 0.05546728 0.08896918
000250 63 bd cb 3d ec e7 f4 3d 64 f8 ac 39 ee 17 bc bd
       0.09948232 0.11958298 0.00032991462 -0.09184252
000260 91 39 96 bd 6c d5 d9 bd cd 0c 8d bc 22 ca 62 3d
       -0.07335199 -0.1063641 -0.017218018 0.05536855
000270 5c e0 22 3d 62 1b 13 3d f1 00 3d 3c c0 59 49 3d
       0.039764747 0.035914786 0.011535869 0.049157858
000280 74 f9 a7 3d 8a 62 9a 3d a1 53 f8 bc 64 35 a4 bd
       0.08201876 0.07538326 -0.030313315 -0.08017996
000290 d5 86 c9 bd 2a a0 6c 3c e5 68 76 3c 62 29 bd 3d
       -0.0984017 0.014442483 0.015039657 0.09236409
0002a0 c4 1f 63 3c 36 d8 6e 3d 84 b3 15 bd bf 3a ca bc
       0.013862554 0.058311664 -0.036548153 -0.024686215
0002b0 df 7a 08 be 8f 33 c1 bd 61 9a 2d 3e 46 09 80 3d
       -0.13328122 -0.09433662 0.16953422 0.06251769
0002c0 d4 1f 12 be d3 a2 ee 3d ac 85 dd 3b 67 77 f7 3d
       -0.14269954 0.1165215 0.0067603197 0.12083321
0002d0 81 24 1e 3b 54 4c a7 3c 1d 05 f8 bd e0 77 71 bd
       0.0024130645 0.020422138 -0.1211035 -0.058952212
0002e0 33 01 b1 3d 76 ca c9 bd 92 ad b5 bd 86 55 46 be
       0.08642807 -0.098530695 -0.088709965 -0.19368562
0002f0 6e 3f 7a 3b 64 3d 41 be 8f 05 2c be ac a2 06 be
       0.003818478 -0.18871075 -0.16798995 -0.13147992
000300 2f cd 92 3d 39 e2 ed 3c cb fe de 3b 34 f6 0b 3e
       0.07168042 0.029038535 0.006805276 0.13668138
000310 95 76 2d be cf 21 5a bc 59 13 f2 bc 66 60 6e 3d
       -0.16939767 -0.013313725 -0.029550241 0.0581974
000320 62 72 c4 bd 9f 27 11 3c 58 f7 b2 bd aa f4 9c bd
       -0.09592129 0.008859544 -0.08738583 -0.076638535
000330 bc f4 b7 3d 5b a2 ac bd ce 7b 3c bc 2c f0 95 3d
       0.08982226 -0.08429404 -0.011504127 0.073212
000340 25 47 67 bc c1 1e 1f 3d 8a 09 01 3e bb c7 9a 3d
       -0.014116083 0.03884769 0.12601295 0.07557627
000350 3c e1 e2 bc b5 50 a5 3d f7 45 ca bd 33 be c2 3d
       -0.02769529 0.08072034 -0.09876626 0.09508934
000360 70 b3 41 bd be 67 4a 3e 6e 08 ed 3c 24 3b 92 bc
       -0.047290266 0.19766137 0.028934684 -0.017850466
000370 66 42 ec bd a7 53 a9 3d 89 ff 1b 3e e5 68 99 3d
       -0.11536102 0.082679085 0.15234198 0.0749071
000380 69 5f 80 bd 3d af 69 3d 3e 6d 76 3d ab 37 36 3d
       -0.06268198 0.057051886 0.060162775 0.044486683
000390 89 c4 69 3d 3c 6e 23 be 18 2a a4 bd a2 d4 f2 3d
       0.057072196 -0.1596002 -0.08015841 0.11856963
0003a0 8c df a5 bd 6e f4 20 3e 31 c3 11 bd e9 8a 5a bc
       -0.08099279 0.15718243 -0.03558654 -0.013338783
0003b0 e1 e2 13 bd c1 97 0b be 95 93 35 3d 8d 45 1a 3c
       -0.03610504 -0.13632108 0.0443302 0.009415996
0003c0 6e 4b 40 bd 51 a4 97 3d 0e 12 10 3d cf c1 f6 bd
       -0.046946935 0.07404388 0.03517347 -0.12048685
0003d0 94 f6 7c bd d1 6f 25 3e ec dd d9 3d db 59 5b 3d
       -0.061758593 0.16155936 0.10638031 0.05355249
0003e0 70 9c e9 3c 6a 77 90 3d c4 42 b8 3d 4b 38 3e bd
       0.028516978 0.070540264 0.089971095 -0.046440404
0003f0 bf 9b c2 bd 87 f9 9f 3d bb f3 cf 3d 31 7e 63 3b
       -0.095023625 0.078112654 0.1015391 0.0034712667

_input_layer.0.bias f4 [64]
000000 87 53 32 3d 69 ce 8a bc 38 1a a5 bc 72 b5 15 bc
       0.04353669 -0.016944127 -0.020154104 -0.009137498
000010 c7 7e 99 bc db 27 95 ba 3e 12 6d 3c 46 84 cb 3b
       -0.01873721 -0.0011379676 0.014469681 0.0062108366
000020 46 b5 0d bc 83 f8 98 bc 50 d4 0d 3c e7 07 ff 3c
       -0.008649176 -0.018673187 0.008656576 0.031131698
000030 8a b3 6b 3c 25 c9 7c 3c 60 8e a0 3b 25 2e ce 3c
       0.014386067 0.015428816 0.004899785 0.025168488
000040 21 19 b6 bb 65 46 88 3b b3 c7 b2 3c 41 0e b5 3c
       -0.005557195 0.0041587823 0.02182374 0.022101523
000050 2f ef e1 bc 5c 51 9d bc 25 7f 75 3c 74 1d 3d bc
       -0.027579872 -0.019203834 0.014983927 -0.011542667
000060 ca 0b 84 bc db 25 98 bc 20 06 17 3c 27 1e a1 bb
       -0.016118903 -0.018572738 0.009217769 -0.0049169245
000070 ad 30 d6 bc 67 2f 80 39 ca d9 9f 3c 68 2c 96 bc
       -0.026146257 0.0002444938 0.01951303 -0.018331721
000080 8b 9e 07 3d 7c 85 72 b9 a7 98 58 bc 6f d4 6a 3c
       0.033110183 -0.00023128645 -0.013219989 0.014332875
000090 1a 49 a8 bb 3e 90 ea 3b 26 cd 00 bd ec ae c2 bb
       -0.0051356675 0.0071583083 -0.031445645 -0.0059412625
0000a0 52 50 82 3a 4d 2a b7 bc 56 45 cc bb 3e fb 6a 3c
       0.000994215 -0.022359038 -0.0062338514 0.014342127
0000b0 d0 56 c3 bc 5c 76 9d bb 9a b7 58 bb 5f 30 19 3d
       -0.023845106 -0.0048053693 -0.003306842 0.037399646
0000c0 12 1e 01 bb 9d 16 ed 3b c9 f3 78 3c bc cd d5 bb
       -0.0019701761 0.0072353617 0.015194842 -0.0065247696
0000d0 39 71 06 bd dd 8e 14 3d e2 8a e7 3b e9 77 24 bd
       -0.03282282 0.036269058 0.0070661167 -0.040153418
0000e0 99 6c f9 bb e3 0f 92 3c 30 01 fc bc 7d 4f 40 3c
       -0.007611823 0.017829841 -0.030762285 0.0117377015
0000f0 7c ff 15 3b ab c2 0a bd f0 9c db 3c 8e 43 bf 3c
       0.0022887876 -0.033877056 0.026808232 0.023347642

_middle_blocks.0.weight f4 [256, 64]
000000 e0 8d 3e 3d 96 4a e8 3d 95 fb 46 3c 12 e3 30 bc
       0.04652202 0.11342351 0.012144943 -0.010796325
000010 02 f5 c3 3d 19 6e 58 3b 8e 0b c3 bd 34 1e 6a 3d
       0.09568216 0.0033024608 -0.09523688 0.05715771
000020 1d a0 98 3d dd a4 20 be 9b 77 0e 3d 2a f4 9e 3d
       0.07452414 -0.1568789 0.034782033 0.07761414
000030 18 c7 ff 3c 47 b1 7e bd 28 f4 88 bd 2a e2 20 be
       0.031222865 -0.062180784 -0.06687194 -0.15711275
000040 f8 3d f6 bd 67 a3 6a 3c d2 14 06 be 50 39 1c 3e
       -0.12023538 0.014321185 -0.1309388 0.15256238
000050 dc d9 d6 bd 3f 70 22 be 3b 66 80 bd dd a8 05 be
       -0.10490772 -0.15863131 -0.06269499 -0.13052697
000060 8c 47 92 bc 77 e1 b9 3b 6b 3d ba 3c 86 09 00 be
       -0.017856382 0.0056726295 0.022734364 -0.12503633
000070 0d 35 cc 3d 41 81 54 bd c5 f7 18 be de 9d 5b 3d
       0.09971056 -0.05188108 -0.14938267 0.05361735
000080 c8 0f 10 be 4d ad 0f 3e 5b fe a1 bd 27 18 78 3d
       -0.1406852 0.14030953 -0.079098426 0.06056991
000090 dd 2f 63 3d e0 1e 41 bd 9f 97 61 3d 4d e4 bf 3c
       0.055465568 -0.047148585 0.055076238 0.023424292
0000a0 40 4d aa bd c1 a3 07 be 14 4d df bd 09 b8 17 3e
       -0.083155155 -0.13246061 -0.10903373 0.14816298
0000b0 4f f9 f1 bb ab 08 5c be e6 fb 82 3d 22 e6 89 bd
       -0.007384456 -0.21487682 0.06395702 -0.067333475
0000c0 d8 6e 7b 3d 16 28 4d bc a8 b2 4e 3c 47 fc d2 3d
       0.061385006 -0.012521764 0.012615837 0.10302024
0000d0 87 19 bc 3d bf 02 fd 3d 3d 36 9a bd 01 09 99 3d
       0.091845565 0.123540394 -0.075298764 0.074724205
0000e0 bc 98 c7 3d 79 f2 9a bd 1a 7c b2 bd ee d0 a4 3d
       0.09745929 -0.07565779 -0.08715077 0.08047663
0000f0 6f f3 81 3d e8 dc 06 3b 99 7d 28 bd ad d4 c2 3d
       0.063452594 0.0020578448 -0.041135404 0.09513221
000100 25 6c 1b bd fd 87 25 be 53 87 25 bd b5 a6 f0 3c
       -0.03794493 -0.16165157 -0.04041226 0.029376367
000110 8b ad 5c 3d 63 a5 b3 3d d2 82 42 3c 99 d6 a2 3d
       0.05387644 0.087717794 0.01187201 0.079510875
000120 d4 48 31 be b5 62 4b 3c 93 c0 d1 3c 32 3b 73 3b
       -0.17312938 0.01241367 0.025604522 0.003711414
000130 8f 47 e8 bd c3 85 99 bd 88 2d 91 3d 35 0d 03 be
       -0.11341774 -0.07496216 0.070887625 -0.12798007
000140 24 6c 16 3e 8d dc b3 bd ee 9b cf 3d b2 c1 f2 3d
       0.1468969 -0.08782301 0.10137163 0.11853351
000150 00 bc 25 bd 03 c0 e0 bd 6b 05 b2 bb 8d f0 a2 bd
       -0.040462494 -0.10974123 -0.005432775 -0.07956038
000160 7b 58 37 bd 22 bf bf 3d 81 e2 ab bc 1b 44 b7 3d
       -0.044762116 0.093626276 -0.020982029 0.08948537
000170 0e f3 0d 3d 48 eb 15 3d d0 06 05 3d 52 35 2b be
       0.034655623 0.036601335 0.0324772 -0.16719559
000180 3d fa 54 3e 54 62 21 bc d9 09 e5 3d 15 37 0e bd
       0.20798583 -0.009850103 0.11183519 -0.0347205
000190 2b 79 40 bd de 73 93 3d d5 32 7f 3d 30 de 97 3c
       -0.046990555 0.07199834 0.062304337 0.018538564
0001a0 6c 24 b5 bd 24 c2 8e 3c 8b c1 b8 bd e3 71 6b 3d
       -0.088448375 0.017426558 -0.090212904 0.057481658
0001b0 b6 71 c7 bd b6 25 12 bc 58 9d 32 3e 91 11 92 3d
       -0.097384855 -0.008920124 0.17442834 0.07132257
0001c0 c5 59 45 bb 90 1a 13 bd 84 ef a7 bb b5 52 5e bd
       -0.0030113321 -0.035914004 -0.005124988 -0.054278094
0001d0 18 b2 c7 bc 6f 60 ad bd 17 5e 9d bd 4d 15 49 3d
       -0.024376914 -0.08465659 -0.07683962 0.04909258
0001e0 8d ab 08 3e 4c de 43 3d 00 48 f6 3d 15 2b 3b bd
       0.13346691 0.04781942 0.12025452 -0.045695383
0001f0 29 4a 4d bd 87 db d4 bc c4 82 a0 3d 32 0b bf bd
       -0.050119553 -0.025983585 0.078374416 -0.09328307
000200 b1 d5 e3 bd 27 cd 44 3d 7e 66 87 3d a0 f7 fc 3c
       -0.11124743 0.04804721 0.06611346 0.030879796
000210 52 77 97 bc 51 da e6 bd 66 f9 9e bd f9 62 6f bc
       -0.018489514 -0.11272109 -0.07762413 -0.014610999
000220 25 47 c4 3d f3 30 db bd 33 4a 28 3e 14 c1 7b 3d
       0.09583882 -0.10702696 0.16434555 0.06146343
000230 05 39 8c 3d a9 39 71 3d d5 52 5b 3d 14 22 04 3c
       0.06846813 0.05889288 0.05354579 0.0080647655
000240 a1 0f a8 bc cb 23 d2 bc b3 23 a6 bc b7 ad 64 bc
       -0.020515265 -0.025651833 -0.020280695 -0.0139574325
000250 15 4b c9 3d f6 ec c4 bd dc 7b ba 3d e8 65 46 bd
       0.09828774 -0.09615509 0.091056556 -0.04843703
000260 97 41 2f be b0 bc c5 bc 82 b1 b5 3d 1b 3e ec bd
       -0.17114864 -0.024137825 0.088717476 -0.11535283
000270 98 2c a2 bd ed 51 1b 3d 33 42 92 bd 13 c8 19 3e
       -0.07918662 0.037919927 -0.07141533 0.15017729
000280 12 03 d0 3c e5 b5 7d 3c cc 6e 0c bc 9d fa 07 3c
       0.025392089 0.015485262 -0.008571338 0.008299497
000290 f4 a3 da bd 27 7a 01 3d 4d 2e d3 bd 93 c8 f1 bc
       -0.10675803 0.031610634 -0.103115655 -0.029514587
0002a0 47 fc 04 3e 97 44 16 be 3b b0 c7 3d 88 07 bb bd
       0.12986861 -0.14674602 0.0975041 -0.09132296
0002b0 2d ae 46 3d 9e 5e b4 bd c7 89 a7 3c 12 d0 1a 3d
       0.04850595 -0.08807109 0.02045144 0.037796088
0002c0 ac 66 98 bd f6 2a 5d 3e a2 f5 b3 bd 9b 7f 57 bd
       -0.07441458 0.2159842 -0.08787085 -0.05261193
0002d0 70 b7 9e bd c7 47 a1 bd 20 e1 33 3c 9f b9 24 3d
       -0.07749832 -0.078750186 0.010978967 0.040216085
0002e0 f8 fb 48 3e 06 23 7c bc 55 1f a2 3d aa 82 1e 3d
       0.19627368 -0.01538921 0.07916132 0.03869883
0002f0 c5 20 c5 3d 7e 7d 99 bd 1b a4 25 3e 43 3e 47 be
       0.09625391 -0.07494639 0.16175883 -0.19457345
000300 6b 30 09 bc a8 7e b5 bd 55 2b 9a bd 6d 3d 14 be
       -0.00837336 -0.088620484 -0.07527796 -0.14476557
000310 3e 7c 52 3d 44 07 91 bc f5 60 d5 bc 37 40 2f be
       0.051388018 -0.01770366 -0.02604721 -0.1711434
000320 f6 71 47 be 82 44 87 bc c7 27 4e bd 9c 91 16 bd
       -0.19477066 -0.01651216 -0.050330903 -0.036759958
000330 57 01 c3 bd 5c a8 8b bb ec 5d 0e bb 8b ce 95 bd
       -0.0952174 -0.0042620134 -0.0021723462 -0.073147856
000340 4e 0a 15 bd 86 2f 30 be b2 9c fd 3d 2c 67 24 be
       -0.03638678 -0.17205629 0.12383403 -0.16054982
000350 04 8c 46 bc b5 d3 f4 bd 75 39 81 3d ae f8 bb 3d
       -0.012118343 -0.119544424 0.06309787 0.09178291
000360 7e b8 b9 3c a3 31 61 bc 13 35 80 bd 6d 3f f5 3c
       0.02267098 -0.0137447445 -0.06260123 0.02993747
000370 2b 32 e7 bd 04 48 f1 3a 49 8a 8d 3c af 0e 8f bd
       -0.11288866 0.0018408303 0.017277854 -0.069852225
000380 3a ea 34 3e 6c 94 bc 3d a2 1e 25 bd b9 fa 58 3d
       0.17667475 0.09207997 -0.040312417 0.052973483
000390 c9 c0 ad bd b2 ad 96 bd 0f 2e 05 3d 67 d2 bb 3d
       -0.084840365 -0.073573485 0.032514628 0.091709904
0003a0 48 2e 16 3e 93 98 2b 3d 44 a4 8e 3c cc 40 92 3d
       0.14666092 0.041893553 0.017412312 0.07141265
0003b0 49 53 9c bc a4 e9 00 be 5e 00 27 bd bf c1 25 be
       -0.019082682 -0.12589127 -0.040771835 -0.1618719
0003c0 b3 2a 9f bc e7 7c bc 3d 6b e1 d1 bd e5 3a cc 3d
       -0.01942954 0.09203511 -0.10248073 0.09972171
0003d0 0b 6a 0e bb a8 c8 3e 3e 93 8d 15 bd 4f ab d0 bd
       -0.0021730687 0.18631232 -0.03651197 -0.101889245
0003e0 d0 6a 08 be 14 fc 45 3d e7 35 9d 3d 53 77 b9 bd
       -0.13321996 0.048336104 0.07676297 -0.090559624
0003f0 3e 9a 9d 3d c8 c1 03 3d ad e6 59 bc da dc 7a bd
       0.07695435 0.032167226 -0.013299626 -0.061245777

_middle_blocks.0.bias f4 [256]
000000 1e 99 b3 3c 7c 20 17 3c b5 60 9b 3c 31 13 4a 3c
       0.021923598 0.0092240535 0.018967012 0.012333677
000010 42 4d 98 bb e4 55 38 bc 0d 49 a6 bb 09 06 23 3c
       -0.0046478817 -0.011250947 -0.0050746263 0.009950169
000020 ea 53 3d ba 78 ce db 3c 73 c0 da bb ef 97 c9 3b
       -0.0007222282 0.02683185 -0.0066757738 0.006152145
000030 12 bc 20 3c 8e 0b a9 bc 6a 5b 2c bc 09 03 12 bc
       0.009810464 -0.020635393 -0.010519842 -0.008911856
000040 76 8e 11 bc 17 d0 01 3c e9 94 18 bc 7b dd 3b 3c
       -0.008884063 0.007923148 -0.009312847 0.011466379
000050 fd 46 7b 3c 0f 95 4a 3c 34 37 66 bc a9 3c 3c 3c
       0.015336749 0.01236464 -0.014051247 0.011489072
000060 b1 c2 81 3c 72 c1 78 bc 69 c5 20 3c e7 80 91 3c
       0.015839906 -0.01518284 0.009812691 0.01776166
000070 d5 b1 72 bc 0d 34 2f bb 12 23 ac bb 6c ed 53 3c
       -0.014812906 -0.0026733906 -0.005253204 0.012935024
000080 32 e5 99 3c 2f 35 7c 3c 47 02 4a bc fb 5f 12 39
       0.018786047 0.015393539 -0.0123296445 0.000139594
000090 76 2f 04 3c 57 c3 54 3c ca 0d 8d bc a9 af bf 3c
       0.008067956 0.012986026 -0.01721849 0.023399191
0000a0 72 64 c1 3b 99 2f 27 3c 8f d1 aa bc 9e ac 08 3c
       0.0059018666 0.010204219 -0.020851878 0.008341936
0000b0 20 45 fd bb 67 19 c4 3c b7 e2 51 3c b4 7b 55 3c
       -0.0077291876 0.023937894 0.012810401 0.013029981
0000c0 7c 28 a1 bb c2 7a 76 3c 81 70 88 bc 4e 2b f4 bb
       -0.004918156 0.015043916 -0.016655209 -0.0074514514
0000d0 b8 0a 5e 3c 4c 0a 4d bc 58 90 18 bc c2 70 8b bb
       0.01355236 -0.012514662 -0.009311758 -0.004255385
0000e0 d5 29 6d bc c9 e1 57 3c a9 d0 29 bc fc 5c ca 3b
       -0.014475306 0.01317639 -0.01036469 0.0061756354
0000f0 68 f4 18 3d b9 4a 9b 3c 5d 41 56 bc d4 7a 45 3c
       0.03734246 0.018956529 -0.013077107 0.01205321
000100 d1 5c 61 bc a9 66 61 3b d2 6a 3c bc 76 81 1c bb
       -0.013755039 0.0034393466 -0.011500077 -0.0023880876
000110 95 e0 c7 bc bb c8 c6 bb d7 ff 82 3a fd 4d c3 bb
       -0.024399081 -0.0060664094 0.0009994459 -0.0059602247
000120 33 1b cb 3b b2 33 a7 bc 6e 9d c7 bc 0a 86 ba 3c
       0.0061983108 -0.020410392 -0.02436706 0.022768993
000130 48 7e 72 3c 77 76 97 bc f7 7f 84 38 11 ef 0a 3c
       0.014800616 -0.018489106 6.318086e-05 0.008479849
000140 ea 82 84 bc e0 44 65 bb a2 7c 04 3c f3 ba d2 3b
       -0.016175706 -0.003498368 0.008086355 0.0064309775
000150 fd 78 7d bc 60 95 83 3c 73 c1 32 bc 9f 83 8e bb
       -0.01547074 0.016062438 -0.01091038 -0.0043491866
000160 bb 3e 23 bc 81 fc 1f 3b 07 eb 54 3c 13 f6 34 bc
       -0.009963687 0.0024411979 0.012995488 -0.011044997
000170 5b a2 74 bc 2b dd 4d 3c ee ec 1f 3c 64 4c af 3c
       -0.014931287 0.012564938 0.009761078 0.02139873
000180 4a 3c 77 bc ef 21 0b bd 23 75 4e bc 59 26 80 bc
       -0.015090058 -0.03396791 -0.01260117 -0.015643286
000190 fb 14 80 3c 55 b7 5f bb 5c e4 d1 bc f2 36 d7 3b
       0.015635004 -0.0034136374 -0.025621586 0.0065678293
0001a0 fb 7c 0b bc 6a 6f 8a bb 17 ae 28 bc 86 c9 1a 3c
       -0.008513684 -0.0042247074 -0.0102954125 0.009447461
0001b0 3d 3d 76 3c 3a 7f a4 3c d8 66 24 3c 62 fd 97 bc
       0.015029249 0.020080198 0.0100342855 -0.01855344
0001c0 b7 87 14 bc 46 b5 09 3c e1 cf 20 bc 4e 3d 90 3a
       -0.00906556 0.008405035 -0.009815187 0.0011004598
0001d0 bb 4c 9a 3c 31 fe 46 3c 6c 39 90 3c e9 80 c1 bb
       0.018835416 0.012145565 0.017605506 -0.00590526
0001e0 3f 8b 98 bc e4 b7 f2 3a 8f 65 ff bb 04 4d 55 3c
       -0.018621085 0.0018517938 -0.007794089 0.01301885
0001f0 7b 91 28 bc cf 93 6a bc 6a a3 b6 bc 2f 31 d7 3b
       -0.0102885915 -0.014317467 -0.022294719 0.0065671424
000200 16 3d c0 3c f1 3f 23 3c 74 ad 5f bb 60 59 b9 3c
       0.023466628 0.009963975 -0.0034130486 0.022625625
000210 92 63 c5 3c 41 c7 4b 3c e6 09 11 3b d7 69 d2 bb
       0.02409533 0.012437643 0.0022131144 -0.0064213085
000220 8b 07 fc 3a 6c a2 9c bc ac 1f 78 b8 44 e7 f8 3b
       0.0019228322 -0.019120418 -5.9157304e-05 0.0075959284
000230 0a 8c 98 3c 1e f2 07 bc 02 bf 12 3c c1 02 41 3c
       0.018621463 -0.008297471 0.008956673 0.011780442
000240 17 76 67 3c c2 33 ec bb aa e7 3d 3c b1 d0 7f 3c
       0.014127276 -0.0072083184 0.011590878 0.015613721
000250 29 16 9f 3c b3 4a 14 bd fa d5 72 3c 0f 63 2f 3c
       0.019419746 -0.03620405 0.014821524 0.01070477
000260 01 f0 1e bc 3d e9 cd bb 7e 06 2c bc 18 6f 81 bc
       -0.009700776 -0.0062839077 -0.010499595 -0.015800044
000270 7b e1 90 3c 43 59 93 3c 1e f5 73 bc 0f 49 7b bc
       0.017685642 0.0179869 -0.014889983 -0.015337243
000280 f3 1c 04 3c 89 b3 d4 bc f3 96 29 3c 7b 79 8b 3c
       0.008063543 -0.025964515 0.0103509305 0.0170257
000290 c5 c5 80 3b e9 62 c6 3b a5 8a ea 3b 2c 7f 5a bc
       0.003929826 0.0060542715 0.007157641 -0.013335984
0002a0 e5 7c 80 ba b4 25 1f 3c 9a 4a a7 bb b7 d6 64 bc
       -0.0009802846 0.009713579 -0.0051053287 -0.013967208
0002b0 d9 48 7d 3c 45 7f f7 bb d6 ca 8a bc 4d 6b d3 3c
       0.015459263 -0.0075530135 -0.016942423 0.025808001
0002c0 98 a4 e8 bb 1a 79 55 bc 49 b0 88 3c 3e 6e 70 3c
       -0.007099699 -0.013029361 0.016685622 0.014674721
0002d0 17 7a 4b bc db 60 89 3c a3 4e 5e 3c ee 35 46 3c
       -0.012419245 0.016769817 0.013568553 0.012097819
0002e0 e8 dd dc 3b 59 83 91 3c 09 9e cb bb 3a 76 c2 3c
       0.0067403205 0.017762827 -0.0062139076 0.023738015
0002f0 84 ab 7f 3c 84 14 a2 3b 89 57 1d b8 9b 13 15 3d
       0.015604857 0.0049462933 -3.751324e-05 0.03639565
000300 67 2e 72 bc 49 f9 94 3c a3 33 54 bc 44 b8 7a bc
       -0.014781571 0.018185275 -0.012951764 -0.015302721
000310 ba 62 c6 3b 2c 50 17 bc d9 c8 07 3c a2 b2 4f bc
       0.0060542496 -0.009235423 0.008287632 -0.012676867
000320 04 ec 3c bc a3 48 96 bc 7a 05 97 3b 0d 7d 07 bb
       -0.01153088 -0.018345183 0.004608807 -0.0020673901
000330 63 87 82 3b 2b ed f1 3c 28 58 b6 3c bb 13 f2 3b
       0.0039834245 0.029532036 0.022258833 0.007387606
000340 1d 2f 9b bc 1a 2d 00 3d 39 cd 45 bc 92 c2 39 bc
       -0.018943364 0.031293012 -0.012072855 -0.011337893
000350 37 db 11 3c 90 f9 76 3c cf 83 e9 3a 03 fe d6 3b
       0.008902363 0.015074149 0.0017815771 0.0065610423
000360 54 6c c8 3c 4d ac 56 bc 1f 48 5a bc 56 aa 04 bc
       0.024465717 -0.013102603 -0.013322859 -0.008097252
000370 3e 56 4c 3c f8 84 92 3c 64 17 9c bb f3 34 81 bc
       0.012471734 0.01788567 -0.0047635306 -0.015772318
000380 c0 36 09 3c 9c fc bc bc a9 aa 69 bc 6b 79 cd 3b
       0.00837487 -0.023069672 -0.01426188 0.0062705777
000390 ca a5 d2 bb 6a 93 25 bc 54 67 df 3c 67 ea 7a 3c
       -0.006428455 -0.010105947 0.02727095 0.015314675
0003a0 28 07 07 bc b4 37 f5 bc 19 99 cd bc de b4 4e bc
       -0.008241452 -0.029933788 -0.025097417 -0.012616364
0003b0 3f ef 22 3c bb 74 bb bc 69 b2 06 3d 45 6c 92 3c
       0.009944736 -0.02288281 0.03288499 0.017873893
0003c0 08 d7 ac bb ae bc 6a 3c fd 9f 1a bb 76 89 0f 3d
       -0.005274657 0.014327211 -0.0023593896 0.035043202
0003d0 62 ce 83 3c a5 e0 7f bc 5f c3 93 3c ef 30 74 bc
       0.016089622 -0.015617524 0.018037496 -0.014904245
0003e0 8b 54 00 3c df 74 6f 3c ef dd 94 3b e5 70 0a bc
       0.007832657 0.014615267 0.004543058 -0.008449768
0003f0 a9 07 33 3c 48 d2 db bc a2 2d 1d bb 96 4a 02 bc
       0.010927119 -0.026833668 -0.0023983498 -0.007952353

_middle_blocks.2.weight f4 [256, 256]
000000 08 0c a2 bb 50 cc 6a 3d 17 7a fc bc f9 f0 0c 3d
       -0.004945282 0.057323754 -0.030819936 0.034409497
000010 82 5d 73 bd 39 e5 86 3d 6e 69 2b 3e ba ff ad bd
       -0.059415348 0.065866895 0.16739437 -0.084960416
000020 b8 22 6b bd 08 22 83 bd d9 7d f4 bc 5c 1b a0 3c
       -0.057406157 -0.06402975 -0.029845165 0.019544296
000030 0a 90 05 be 52 f8 97 3d 71 99 57 3d 76 2c a1 3d
       -0.13043228 0.0742041 0.052636568 0.078698084
000040 f4 37 c6 3b 6d ce 93 3c c6 90 ce bd 21 9c d5 bd
       0.0060491506 0.018042767 -0.10086207 -0.1043017
000050 89 ec f8 3d e3 af 46 3d 67 3e f9 bd d7 b8 56 bd
       0.121544905 0.048507582 -0.121701054 -0.05242237
000060 95 11 2a be 83 3c 56 bd 2f a7 b7 bd c9 bd c5 3d
       -0.1660827 -0.052303802 -0.089674346 0.09655339
000070 08 bc 13 3e ae 8a 88 bd a3 55 80 3d 58 79 ff bc
       0.14427197 -0.06667076 0.06266334 -0.03118579
000080 10 85 91 3d d9 98 3b bd f2 12 05 3e e6 2f 20 bc
       0.07105458 -0.045800064 0.12995508 -0.009777045
000090 a7 e0 09 3d 9d e5 2d bd 6b 94 06 bd 69 dc 1d be
       0.03366151 -0.042455304 -0.032856386 -0.15416111
0000a0 24 49 94 3d 4d d5 a0 3c 2b 39 b7 3d 9a e2 ab bd
       0.07240513 0.01963296 0.08946451 -0.0839283
0000b0 33 fa b3 3d 8b c2 c4 bd 12 ce b6 3c a1 8e 81 3c
       0.08787956 -0.096074186 0.022315059 0.015815081
0000c0 65 1d 90 bd e8 b8 c5 bd 4a 78 7f bd 05 b4 80 bd
       -0.070368566 -0.09654409 -0.062370576 -0.06284336
0000d0 ad ea 84 3c d7 5d 99 3d b0 6b a3 bd e2 d2 ef 3d
       0.016225183 0.07488602 -0.07979524 0.117101446
0000e0 48 48 ac bc 16 b1 0f be 34 4f 39 3d dd 37 cf 3d
       -0.02103056 -0.14032397 0.04524155 0.10118077
0000f0 4f 64 ad bc 53 0d 2f be 84 6a 24 3e e5 ec f1 bc
       -0.021165995 -0.17094927 0.16056257 -0.029531905
000100 30 43 8e bd 6a fe da bd c3 b9 d4 bd a7 bc 63 bd
       -0.06946409 -0.10693057 -0.10386994 -0.055599835
000110 d0 fb db bd c3 73 0c 3e a5 79 13 3d d5 b7 8d bd
       -0.10741389 0.13716035 0.03600468 -0.06919829
000120 3a 45 fa 3c 4f 8f e9 bc e6 43 1e be ae 61 e1 bb
       0.030550588 -0.028510718 -0.15455589 -0.0068780994
000130 60 95 99 bd a6 4b 82 bc 5f 9f 73 bd 52 31 ae bd
       -0.07499194 -0.015905213 -0.05947816 -0.08505501
000140 34 a2 eb bd 4d 7b 7c 3d 76 34 f0 bb 1f 9b 12 3e
       -0.11505547 0.061641026 -0.0073304726 0.14316987
000150 f0 fe 18 3c d9 75 23 3e 6a f9 f2 3b a1 c8 3b 3d
       0.009338126 0.15962924 0.0074149864 0.04584563
000160 03 6d 35 3d af 41 08 3d c4 12 13 3e 78 9a 8e bd
       0.044293415 0.033265766 0.14362627 -0.06963056
000170 26 2a 1b be 31 a6 0c 3d 07 b0 b7 3c 42 be b9 3c
       -0.15152797 0.03433818 0.022422804 0.02267373
000180 ae 21 44 3c 7f 39 02 bd b0 21 24 be 03 dc 48 bd
       0.0119709205 -0.031793114 -0.16028476 -0.049037945
000190 0e 7e 8b bd bf 36 d1 bd 78 00 97 3d 6d 56 f0 3c
       -0.068111524 -0.1021552 0.07373136 0.029338086
0001a0 3d b8 f3 bc 5f b5 8f bd 70 69 1e 3e 4c 02 5c bd
       -0.029750938 -0.07017016 0.15469909 -0.053713128
0001b0 d4 1c da bd 61 47 87 3c 5f 90 d9 3d 76 43 fc bd
       -0.1065003 0.016513528 0.1062324 -0.12317555
0001c0 96 37 fa 3d 4b c1 fe 3c f5 78 0b be c3 8c 91 bc
       0.122176334 0.031098029 -0.1362036 -0.017767316
0001d0 8f 07 83 3c 82 0b 01 be a7 84 84 bd 48 6e 62 bd
       0.015994815 -0.12602046 -0.06470614 -0.055280954
0001e0 19 2f d8 3d c0 62 d5 bd de 58 11 be c7 ca d3 3d
       0.10555858 -0.10419226 -0.14194056 0.10341411
0001f0 bd 0c 5c bc a7 c3 4a bd a6 59 09 bd b3 25 68 3d
       -0.013430771 -0.049502995 -0.03353276 0.056676578
000200 46 df cf bc 5d 8d 5b bd 0a ba d0 3d 48 7f 97 3d
       -0.02537502 -0.05360161 0.10191734 0.07397324
000210 b2 72 31 be e9 50 20 bc 16 d0 d7 3c 5d 68 82 3d
       -0.17328909 -0.0097849155 0.02634434 0.06367562
000220 06 36 fd 3b 52 1d bc bd 58 61 84 3d ad cf eb bc
       0.0077273874 -0.0918528 0.06463879 -0.028785551
000230 84 9d 52 3b 0b 57 8b 39 e4 42 79 bd 63 f8 be 3d
       0.0032137344 0.00026576998 -0.060854807 0.0932472
000240 56 50 24 be 68 0a b0 bd ee 50 a0 bc 29 77 ad 3c
       -0.1604627 -0.08595735 -0.01956984 0.021174984
000250 e3 99 39 3d fa 6e 10 3c 44 a4 ee bd 6e 80 d0 bd
       0.045312773 0.008815521 -0.11652425 -0.10180746
000260 e0 16 ff 3c 4d 61 aa bd 30 09 d4 3d e1 15 b6 3d
       0.031138837 -0.0831934 0.10353315 0.08890892
000270 7f 30 6f bc 27 ad 88 bd e8 2a db 3d 80 c2 25 3e
       -0.014598965 -0.06673651 0.10701543 0.16187477
000280 4c bb 66 3b 31 c7 49 bc 96 bb 07 be 67 5f 1d 3e
       0.0035206852 -0.012315557 -0.13255152 0.15368424
000290 f9 7e 79 bd 77 ab bf bd 74 52 cf bd c6 b0 83 bd
       -0.060912106 -0.09358876 -0.101231486 -0.06430201
0002a0 53 78 ab bd 9f fe d1 bd 9b 29 a2 bb 90 ff 07 3e
       -0.083725594 -0.10253643 -0.0049488074 0.13281083
0002b0 5e dc 47 3d 73 4e 66 3d de 73 42 bd d4 2f 15 3e
       0.048794143 0.05622716 -0.04747378 0.14569026
0002c0 5c a5 fe bd db 76 e7 bd ef 04 9a 3b e1 03 fc 3d
       -0.124338835 -0.11301967 0.004700295 0.12305427
0002d0 fc 34 32 3d 50 d6 b1 bd 3d fe cc bb 30 b7 75 bd
       0.04350756 -0.08683455 -0.0062558935 -0.059989154
0002e0 fb b2 94 3d af ef d4 3d ca d0 bf bd 97 36 a0 bd
       0.072607 0.103972785 -0.09365995 -0.07822912
0002f0 f5 18 19 3e e9 72 27 be f6 38 83 3d de 8e e2 bd
       0.14950927 -0.16352428 0.06407349 -0.11062406
000300 36 28 3c bc 08 c2 f7 3d 4c 00 97 bd 02 75 bd bd
       -0.011484196 0.120975554 -0.073731035 -0.09250833
000310 ce c0 6d bd 28 e7 f8 bd 9b f6 74 bd dd 95 95 bd
       -0.0580452 -0.121534646 -0.059805494 -0.07303975
000320 6c 5f d5 bd 39 00 10 be 3e 26 3a be 7d 5a 5f 3c
       -0.10418591 -0.14062585 -0.1817865 0.013632414
000330 6b d0 91 3b e6 ea 3b 3e 5b ae 9a bd b6 67 1b 3e
       0.004449894 0.18351325 -0.07552787 0.15176281
000340 98 ef ac bc 69 65 cc bd ff b2 4a 3c 2e 57 54 3d
       -0.021110341 -0.0998028 0.012371778 0.051840954
000350 77 cd b9 bd 0e 52 8f bd 4d 62 96 bd 9e 4f 8f 3c
       -0.090723924 -0.069980726 -0.07342968 0.01749402
000360 b8 6a 04 be b4 c6 8a 3d 0d 83 20 3d 21 97 12 be
       -0.12931335 0.06776181 0.03918748 -0.14315464
000370 dc ce c8 3d ad 4a 0e be 91 87 1f bd a2 51 be 3c
       0.0980508 -0.13895674 -0.038947646 0.023232285
000380 68 44 3a be 12 5e cd 3c bd d9 b3 bc c7 a5 a4 bd
       -0.18190157 0.02506927 -0.021954412 -0.08039432
000390 94 e9 a8 bc 10 1b 18 3d f1 5e b7 bb fb 43 aa bd
       -0.020619191 0.037135184 -0.0055960347 -0.083137475
0003a0 81 73 02 be c5 0f 59 3d 7d c9 24 be b4 a6 83 3d
       -0.12739374 0.052993555 -0.16092487 0.064282805
0003b0 c0 f8 60 3d 53 8a b3 3b ae 85 69 3d 36 cf 46 bd
       0.054924726 0.005479136 0.057012253 -0.048537455
0003c0 2a a7 f2 bc 60 23 f1 3d 9d 78 14 bd 37 1e a6 bd
       -0.029620726 0.11774325 -0.03624784 -0.08111232
0003d0 17 b6 8d bd 2e ec e9 bd 12 c7 00 3e ca 4f ea bb
       -0.069194965 -0.11422001 0.1257594 -0.007150625
0003e0 89 bb f4 3d 38 b8 b2 3c df c6 a3 bd ff d7 9c bd
       0.11949832 0.021816358 -0.07996916 -0.076583855
0003f0 14 e0 59 3d d3 2b ec bd b0 c1 2b 3e 33 19 f2 3d
       0.053192213 -0.11531796 0.16773105 0.118212126

_middle_blocks.2.bias f4 [256]
000000 47 6d b8 bb 40 4d 45 3b d7 6a 8b 3c 28 41 85 bc
       -0.0056282612 0.003010586 0.017018719 -0.01626642
000010 82 03 4f bc fb a9 db 39 90 e7 1c bc 70 8b 3a bc
       -0.012635114 0.0004189758 -0.009576693 -0.011385784
000020 09 a4 99 3c 3f 85 19 3c d0 e7 6e 3c 26 b2 9d bc
       0.018754976 0.009370147 0.014581636 -0.019249987
000030 21 bb 5f 3c a2 00 73 bc 53 93 69 3c 3e 24 6e 3b
       0.013655455 -0.014831694 0.014256316 0.003633752
000040 ed 6c 71 bc 85 b2 a3 3b 6e e6 3c bc bc be b6 bc
       -0.014735443 0.0049956464 -0.011529548 -0.022307746
000050 11 3f 80 bc a7 79 59 bc 29 10 28 3c e3 86 b9 bb
       -0.015655072 -0.013273633 0.010257759 -0.0056618317
000060 93 14 54 bc 83 0d 80 3c f8 72 aa bb 61 ae f0 3b
       -0.012944358 0.015631443 -0.0052016936 0.0073450063
000070 5c 94 c7 bc be c2 63 3b 88 0c 12 bb 7a 8b 8c 3b
       -0.024362735 0.0034753527 -0.0022285301 0.004289088
000080 f6 e6 e9 bb 06 01 45 3b d0 b9 2f bc 58 a7 01 3c
       -0.0071381284 0.0030060424 -0.0107254535 0.007913433
000090 79 65 98 b9 c3 11 8c bc 5b c7 90 bc 74 ef 86 3c
       -0.00029067302 -0.017098313 -0.017673185 0.016471602
0000a0 7d f4 05 3c 26 45 1d ba ad ad 2c 3c 5f 55 16 3c
       0.008175966 -0.00059993786 0.010539454 0.0091756275
0000b0 fb 62 92 3b f8 55 32 3c 2c 8c db bb 39 49 2c 3c
       0.004467366 0.010884754 -0.0067000594 0.0105155045
0000c0 94 a7 b8 ba 87 88 0a bb 57 a0 68 3c cc a8 6a 3c
       -0.0014088028 -0.0021138506 0.014198384 0.014322471
0000d0 94 cb e8 bc 30 53 20 bc 94 0a 02 bc 80 81 79 3b
       -0.028417386 -0.009785458 -0.007937092 0.0038071573
0000e0 96 4d 8d 3c d3 0b 61 bc 15 92 73 3c 5a dc e8 bb
       0.01724891 -0.013735729 0.014866372 -0.007106346
0000f0 1d 8c 98 3c 71 af e1 bb 08 5e 6f bb b5 8f 67 bc
       0.018621499 -0.0068873693 -0.0036524553 -0.0141333835
000100 b8 fd e4 ba 9b 79 c9 3a 8a f3 9d 3b 59 d1 92 3c
       -0.0017470634 0.0015371324 0.004820292 0.01792209
000110 41 32 8c 3c b0 b8 48 3c 83 60 72 3c 5a 50 64 3c
       0.017113807 0.012251064 0.014793518 0.013935173
000120 9c ca 9d bb 8a ec ab 3c 50 81 13 bc 3d 59 4f 3c
       -0.0048154127 0.020986814 -0.0090029985 0.012655553
000130 e2 69 13 3c a1 74 b3 3b 39 0e af 3c 83 30 88 3b
       0.008997412 0.0054765497 0.021369087 0.0041561737
000140 22 a4 ba bb aa ae 13 3c e8 53 86 bb c0 71 72 3c
       -0.0056958357 0.009013811 -0.004099358 0.014797628
000150 4e 9e 56 bc 84 77 f3 ba d3 42 81 3c ee 3d 92 3c
       -0.013099266 -0.0018575047 0.015778935 0.017851796
000160 0d 5a 4e bc dc d2 22 bc db 02 0a bc 37 3c 43 bb
       -0.012594712 -0.009937968 -0.008423532 -0.002979053
000170 03 83 ba bc 60 1b 8d bc 6e e3 02 bc ac b7 2e 3c
       -0.02276755 -0.017224967 -0.007988794 0.010663908
000180 fc b2 fa bb 83 cf 57 3c 93 f7 78 bc 1b f8 69 bc
       -0.007650731 0.013172033 -0.015195745 -0.014280344
000190 f3 6e 3f bc f0 5c e0 3c 3b a2 b6 39 e6 e1 a9 bb
       -0.011684167 0.027388066 0.00034834616 -0.0051844
0001a0 ae 10 ac 3b a5 e6 7a 3c 08 c9 96 3c 10 4f ad bc
       0.005251012 0.015313779 0.018406406 -0.021155864
0001b0 ce 77 da bc b2 fa ed 3b 4a 9b a7 bb 6b d8 f9 3a
       -0.026668455 0.007262551 -0.0051149474 0.001906169
0001c0 57 14 68 bc e3 73 24 bc 2a 3f fb 3b 74 c1 5f bc
       -0.014165006 -0.010037395 0.007667442 -0.013656963
0001d0 c7 28 94 bc 60 63 27 bc 2a 86 54 3b 92 70 0c bc
       -0.01808585 -0.010216564 0.00324286 -0.008571761
0001e0 75 e7 5f 3b 01 b7 86 bc 31 33 63 bb 17 d6 b1 bc
       0.0034165059 -0.016444685 -0.0034667964 -0.021708531
0001f0 48 ac a2 bc 6c ff a4 3b 47 b4 ae bb ad 19 35 bc
       -0.01985754 0.0050353315 -0.0053315493 -0.011053485
000200 38 da 3c bc a2 c7 73 bc 9e f4 59 3c b3 25 cd 3c
       -0.011526637 -0.014879139 0.01330295 0.02504239
000210 a2 61 ba 3b 4b 53 16 bb 22 04 70 bc d1 6b 0b bc
       0.0056879083 -0.002293783 -0.014649423 -0.008509592
000220 0b a1 15 bc 25 62 8e bb a2 17 80 3c 16 df 66 bb
       -0.009132634 -0.004345196 0.015636269 -0.0035228184
000230 e5 cd 52 3c 1f 6c a8 bb 3b a1 7a bc c0 73 8d bc
       0.012866472 -0.005139842 -0.015297229 -0.017267108
000240 49 b3 90 bc 3a 4b 0c 3c 89 a9 10 3b 3f 79 a3 bc
       -0.017663615 0.008562857 0.0022073707 -0.019955276
000250 2f 2b 12 bb 56 02 d0 3a 81 fd a3 3b ae 47 2f 3c
       -0.0022303571 0.0015869837 0.0050045853 0.010698242
000260 98 7f 08 bc 83 1c b9 3c 73 3c a2 3c 44 ed 84 3c
       -0.008331202 0.022596603 0.019804215 0.016226418
000270 fe 32 20 3c bd bb 4a 3c 11 3c 80 bc 9b 0d 8d bc
       0.0097777825 0.012373862 -0.015653642 -0.017218402
000280 65 32 8f bc d3 a2 b9 bb 55 a9 53 ba a8 ae 31 bc
       -0.017480085 -0.005665162 -0.00080742437 -0.010844864
000290 4e 7f 8a bc 35 25 a0 3c c8 6a bd bb 34 88 c2 3c
       -0.016906407 0.019548992 -0.0057805516 0.023746587
0002a0 08 2b ce 3b 6e 39 87 bb 65 13 89 3c f7 12 25 3a
       0.006291751 -0.004126719 0.01673288 0.00062970765
0002b0 ac 5b 06 3c cb 8f 3f bc 02 c3 3b bc 90 e8 0e bd
       0.008200567 -0.011691998 -0.011460068 -0.034889758
0002c0 10 1f 88 bc 18 b7 77 3c f2 e2 92 3b 40 06 ed 3b
       -0.016616374 0.015119337 0.0044826204 0.007233411
0002d0 d5 81 28 bc ad 3d 65 bc c6 93 dd 3c c7 86 c0 3b
       -0.010284861 -0.013991755 0.027048003 0.0058754417
0002e0 7c a2 64 bc 5c 39 8b bc c3 03 49 3c 7a 07 9c bc
       -0.013954755 -0.016995125 0.012268963 -0.019046534
0002f0 6d e5 5c 3c 93 40 91 3c c7 e1 9e bc f8 22 f0 3c
       0.013482434 0.017730987 -0.019394768 0.02931355
000300 a1 cb 0c 3c 02 6b 6e bc f2 e0 55 3c 3c c2 44 bc
       0.008593471 -0.01455188 0.013054119 -0.0120092
000310 6e 5f 36 3c 19 e4 53 bc d8 29 72 3b 7a 59 25 3c
       0.011131151 -0.012932801 0.003695121 0.010092134
000320 83 f4 8b 3c c1 28 1a bc 07 5d 2c bb 1b 75 9c bc
       0.017084366 -0.009409131 -0.0026300566 -0.019098809
000330 ab 08 07 3c 45 2d cd 3c 27 c1 06 3b 58 92 bd 3c
       0.008241813 0.025046 0.0020561905 0.023141071
000340 2c 79 43 3c 0d 6a b5 bc fe 3a 98 bc 05 32 39 3c
       0.011930745 -0.022145296 -0.018582817 0.0113034295
000350 4c e3 89 bc b8 1e d0 bc ae b2 a4 3b b1 77 6f 3c
       -0.016832016 -0.025405273 0.005026183 0.014615939
000360 c0 7c a4 bc b6 d1 76 bc ee ec 64 bc 7e d0 78 bc
       -0.020079017 -0.015064647 -0.013972504 -0.015186427
000370 f8 74 90 bc a5 76 d0 3b 54 a7 3b bb 36 37 31 bc
       -0.0176339 0.0063618 -0.002863367 -0.010816386
000380 c6 21 be 3b 78 6e 80 3c 90 94 eb 3b c6 c3 bc b9
       0.005802366 0.015677676 0.007189341 -0.00036004017
000390 8a 69 b7 3c 30 02 82 3c 46 c6 ce 3c 14 86 c0 3b
       0.022389192 0.015870184 0.025241029 0.0058753584
0003a0 a0 8a 7e bc f3 4e c5 bb de a0 4f 3c 4f 7b ea bb
       -0.01553598 -0.0060213744 0.012672631 -0.007155813
0003b0 8c 50 29 3c e1 86 9c bc 0c dc 90 3b 30 4a 84 3b
       0.010334145 -0.019107284 0.004420763 0.004037164
0003c0 87 9c 7d 3c b7 d1 0f 3c 96 1e 50 3c 1c 86 ca 3b
       0.015479214 0.008778027 0.012702605 0.006180538
0003d0 d7 a2 b3 bc 4e 0f e1 39 a2 fa 94 3b 8d e2 b2 3c
       -0.021928234 0.00042926747 0.0045464793 0.021836543
0003e0 33 4a ea 3a d2 b5 5c 3c 8b d6 28 bb e5 14 84 bc
       0.0017874896 0.013471084 -0.0025762643 -0.016123245
0003f0 fa 62 6b 3c c1 1c 89 3c 04 4d 74 3c 1b 89 11 bc
       0.01436686 0.016737344 0.01491094 -0.008882786

_middle_blocks.4.weight f4 [256, 256]
000000 66 49 e1 bd d9 18 31 3d 23 e2 8a bd 95 94 1f be
       -0.11000328 0.043236587 -0.067814134 -0.15584023
000010 8c a0 04 be f9 ea 1d 3d e4 f0 af 3d 86 be 09 3c
       -0.12951869 0.038554166 0.08590868 0.008407241
000020 da b2 7b 3e d7 72 4b 3e 72 0f 09 3d f9 7d db 3d
       0.24579945 0.19868027 0.033461995 0.10717387
000030 db a3 0d 3e 02 41 8e b9 8a 45 9f 3c 08 6c 12 3e
       0.13832037 -0.00027132785 0.019442338 0.14299023
000040 da 1d 50 be 2b c5 e6 3d 8e 45 e0 bd 6c 4f 25 3e
       -0.20323887 0.112680756 -0.109507665 0.16143578
000050 e3 83 54 be fd 6f 02 bd 7a 03 61 3d ef 9a 92 bd
       -0.20753436 -0.03184508 0.054934956 -0.071584575
000060 14 14 c3 3d 5b 11 ea bd ef 8b 7a 3d 95 c3 d2 3d
       0.09525314 -0.114290915 0.061168607 0.102912106
000070 9f 63 51 3c 97 40 00 3e 26 0f 31 3e c3 2d 7d 3c
       0.012780099 0.12524639 0.17290935 0.015452805
000080 e1 ac 95 3d 85 29 d4 bd ab ff f7 3d dc 6f ab bc
       0.07308365 -0.10359482 0.12109312 -0.020927362
000090 ca f1 72 3b 50 b6 5a be c1 c8 e2 bd 14 02 a4 3d
       0.0037070387 -0.21358609 -0.11073447 0.08008209
0000a0 17 26 89 3c 1e 50 8b b9 7a 43 b2 3d 97 a2 be 3c
       0.016741795 -0.00026571838 0.087042764 0.023270888
0000b0 6d 87 9a bd 00 ad 6a bd 06 63 b4 bd 55 f7 68 3d
       -0.07545362 -0.057293892 -0.0880795 0.0568765
0000c0 89 b3 e3 bb fc 5a 95 3d cd 91 f4 3d df 27 cf 3d
       -0.0069488925 0.072927445 0.11941872 0.10115027
0000d0 d1 1e ce bd 30 e7 29 be 77 6d 47 bc 79 7d 06 3e
       -0.100644715 -0.16592097 -0.012172095 0.13133802
0000e0 3a 9a f1 ba 1c 6b ce bd e8 33 ac bb e0 de b1 3a
       -0.0018432804 -0.10079023 -0.005255211 0.001357045
0000f0 ad da 7f 3d 5b fe 48 bd de 17 b9 3c 73 8a 53 3d
       0.062464405 -0.049070697 0.022594389 0.051645707
000100 68 b3 ba bd b7 21 85 bc 0b 0a 20 be 78 30 be 3d
       -0.0911625 -0.016251428 -0.15628831 0.092865884
000110 dd e7 3a 3e b0 d2 8a bd 82 18 85 bd ec d9 e5 3d
       0.18252511 -0.06778467 -0.06498815 0.11223206
000120 ef d8 8e 3d 8f fb 2f 3c 58 75 17 3e 0b b3 0b bd
       0.069749705 0.010741129 0.14790857 -0.034106296
000130 1c 5a 1e bd 98 d0 0a 3b 61 1a d6 bc ac 11 09 bd
       -0.038660154 0.002118146 -0.026135625 -0.03346412
000140 2e 3b a7 bd 9d 3c a1 bd 24 7e 76 3d c2 f9 0f be
       -0.081655845 -0.07872889 0.06017889 -0.14060119
000150 a1 0d b2 bc d2 db ff bd dd 31 30 bc 90 b3 43 3e
       -0.021735014 -0.12493099 -0.010754076 0.19111466
000160 ab 58 be 3d 84 03 87 bc d2 1a 7e be 3b a5 63 bd
       0.09294256 -0.016481169 -0.24814919 -0.055577498
000170 28 5e 25 be db a5 e6 bd e5 f6 9a 3d 71 56 9f 3d
       -0.16149199 -0.11262103 0.07566623 0.07780159
000180 21 79 0b 3d 35 b6 2b 3d 12 97 1d 3d 6b f2 27 bd
       0.034051064 0.041921813 0.03847415 -0.041002672
000190 c4 4f e0 bc 13 62 36 ba 10 e1 5a be 0d 60 a4 bc
       -0.027381785 -0.0006957363 -0.21374917 -0.020065332
0001a0 a5 71 2a bd d5 5a 92 3d 14 c4 cc 3d ab 01 f2 3d
       -0.041612286 0.07146231 0.099983364 0.118167244
0001b0 fd 12 22 bd 5e 5d 3f 3d 50 55 1b bd df 36 90 3d
       -0.03956889 0.0467199 -0.037923157 0.07041716
0001c0 0d 6c 96 bd d9 25 db bd 8b b1 47 3d 0c dc 39 bd
       -0.07344828 -0.10700578 0.048753303 -0.04537587
0001d0 7e 56 74 be 86 01 02 3c 53 22 99 3d 3c 8c ec bd
       -0.23861119 0.0079349335 0.0747725 -0.11550185
0001e0 64 fd c3 bd 3e ab 18 3d f0 2f 7e 3d be 63 95 bc
       -0.09569815 0.037272684 0.062057436 -0.018236037
0001f0 38 13 a0 3c da 7b af 3c e5 63 13 be eb 8e 58 bd
       0.019540414 0.021421362 -0.14393575 -0.052870672
000200 c7 54 9a 3c 9e dd 59 3d 2d 88 ed 3b 84 09 f7 bc
       0.018839253 0.053189866 0.0072488994 -0.030155905
000210 b6 a2 ff bd 57 63 34 3e d1 0b 26 bd cc ab 80 bd
       -0.124822065 0.1761602 -0.040538613 -0.06282768
000220 94 f5 57 3d 71 ff d4 bd a2 56 80 3e 16 86 81 bc
       0.052724436 -0.10400284 0.25066096 -0.015811007
000230 dc 87 48 bb f7 40 98 3d 8c 13 9f ba 66 8e de 3c
       -0.0030598557 0.07434266 -0.0012136563 0.02716751
000240 d0 3e 3e 3d 19 23 a1 bd fb ea 17 3e 56 1b 55 bd
       0.04644662 -0.078680225 0.14835732 -0.052028023
000250 74 82 2d 3e 0d 3e 8e 3c 99 b3 16 3e 34 37 03 3e
       0.16944295 0.017363572 0.14716949 0.12814027
000260 6d b2 c3 3d 54 50 1e 3d f7 55 71 bb 5e 40 24 3e
       0.095555164 0.038650826 -0.003682492 0.16040179
000270 8f be d5 bb 4e 03 58 3d 1d 29 b5 bd a2 a7 de bd
       -0.0065229605 0.052737527 -0.08845732 -0.10871817
000280 cb 92 b4 3b ff 41 00 3e 6b f9 10 bd c9 41 8e bd
       0.005510663 0.12525176 -0.035394114 -0.06946141
000290 84 9a 36 3d 71 bb b3 3d bf 77 13 3d d9 d5 2c 3d
       0.04458095 0.08775986 0.03600287 0.04219613
0002a0 c9 da 99 bd da 61 81 3d 9b 8b 64 3b a6 b5 77 3d
       -0.07512433 0.06317492 0.003487325 0.060475968
0002b0 2b c3 8e 3d ba e6 28 3d 53 23 4d bc c5 4f 78 be
       0.06970819 0.041235663 -0.012520629 -0.2424918
0002c0 68 79 b8 bc 3b 90 fe 3c 28 97 3c bc 15 09 dd 3c
       -0.022518829 0.031074634 -0.011510648 0.02698187
0002d0 e2 3c c6 bd 94 0e 1c 3d 0c e7 13 3d f5 1a 03 bc
       -0.09679581 0.03809984 0.036109015 -0.0080020325
0002e0 cb f6 f8 3d 2d 1d ea 3d 9a 58 cb 3d cb f4 e5 3d
       0.12156447 0.11431346 0.09929009 0.11228331
0002f0 e0 e6 05 3c 30 ab 09 3e e4 df 2b 3d 7d 3a d6 3d
       0.008172721 0.13444209 0.041961566 0.104603745
000300 63 7c 1c be ad ca 0f be 18 73 a0 3d a6 34 8a bb
       -0.15281825 -0.14042158 0.078344524 -0.004217702
000310 68 28 2a 3e 80 15 1a 3e 9e b6 54 3e 6c 87 c9 3d
       0.16616976 0.15047264 0.20772788 0.09840283
000320 ce c9 74 3e 09 3b 34 bd 0f e8 43 be 6a 96 87 bd
       0.23905107 -0.044001613 -0.19131492 -0.06620486
000330 7a 91 00 3d b1 6a 93 3c e9 ec 03 3d fa cb a0 bc
       0.031388737 0.01799521 0.032208357 -0.019628514
000340 85 5b 16 3e d4 c1 29 3b de 20 c0 bd d3 55 84 3d
       0.1468335 0.0025902884 -0.09381269 0.06461682
000350 2a 3c f0 3d 2d 23 39 3c 22 e8 c3 3d 50 0e 2b 3e
       0.117302254 0.0112998905 0.0956576 0.16704679
000360 93 b5 73 3d 1a f0 dc bc 25 5a 25 3d d0 da 03 bd
       0.059499335 -0.026969958 0.04036917 -0.032191098
000370 40 eb 83 bd cb 0f 8b 3c 4d bb 4e bd 21 10 4c be
       -0.06441355 0.016975304 -0.050471593 -0.19928028
000380 7f 97 2d 3e 66 b8 9d 3d 5e e9 3c bd be 24 43 3d
       0.16952322 0.07701187 -0.046120994 0.047642462
000390 cd 35 b0 bd 5b c9 0e 3e f4 17 ca bc 62 e1 a6 bd
       -0.08604012 0.13943999 -0.024669625 -0.08148457
0003a0 ef 14 85 bd 17 da cb 3d e0 69 37 3d d8 5e d4 3d
       -0.064981334 0.09953707 0.044778705 0.103696525
0003b0 ef 2f 61 3d 8c 80 db bd c6 14 db bd 3e 57 1f be
       0.054977354 -0.10717878 -0.106973216 -0.15560624
0003c0 eb 00 8c bd 85 c5 21 3e a1 c4 89 3d 99 d7 e4 3c
       -0.068361126 0.15798004 0.06726957 0.027934836
0003d0 bf 18 38 be 9e 2b a4 3d 6e cd 41 bd c1 53 55 bc
       -0.1797819 0.08016132 -0.047315054 -0.013020457
0003e0 c0 4c 9b bb 31 3b ed 3c 6a 7e 42 bc 48 68 03 bd
       -0.004739374 0.028958889 -0.01187096 -0.032081872
0003f0 07 75 05 3d 54 51 9d 3d e1 34 2a 3e d8 16 66 bd
       0.03258231 0.07681528 0.16621734 -0.05617413
