results/Contrast-sota/TD3/rl0/NetParams/Actor.pkl (torch, 887567 bytes, 31 tensors)

_input_layer.0.weight f4 [64, 7]
00000000: 5b10 4e3b df0c a4bd 0759 6abd 6448 0ebd
00000010: 2d08 a6bd 11b5 10be e3b8 95bd 3706 a5bb
00000020: 1761 b93b e8e5 a0bd 1b86 923c 0612 1a3d
00000030: ad07 223e f590 e93d 1cdb e4bd b72f 233d
00000040: 4da9 993d 3322 bbbd 5058 d03d 91f2 9bbd
00000050: f090 d83d c304 8b3d cfa1 0cbe 02af b53c
00000060: 5ffe 28bd 9d04 e33c 90c3 c23d 1d2d 49be
00000070: c60c c53a 0688 903d a4a2 59bd a70d 53bd
00000080: 8fa0 de3d 37fa 4f3d a0c2 c43d f492 2cbe
00000090: 4ab5 e0bd c784 bfbc bd13 3c3d cc77 49bd
000000a0: 773c 913b 12ce fa3d fbbe 41bc fa83 cf3d
000000b0: 6e0d 6cbd 6448 d33c 7475 1a3e 8c7a 9abd
000000c0: 0c1d 073d bcd9 2fbd 9592 b53d 210f 9a3d
000000d0: d54e a4bd df28 673d 63bd 69bc 7fa1 5a3c
000000e0: fa6d 1cbe 4454 393d 3c96 88bb 543d 05bc
000000f0: cda7 723d f1de 203c 5f70 eb3d a923 863d
00000100: 7316 13be 390e 80bd 414f bc3c d52e 9e3d
00000110: 1952 433b 6787 4f3e 88d0 b4bd 0bb4 cdbc
00000120: 96fb 193d deee 51bc b320 2bbd 8027 7c3c
00000130: 91e3 b7bd 4d3a b7bd 90d9 b53c e49a de3c
00000140: 41ab 6e3d 0663 983d d74c e23d 227e 01be
00000150: ba9d 3c3c 2026 05be 9c74 18bd 5ff9 a2bc
00000160: 336b be3c 54f5 d23d 34da f9bc a6f0 143e
00000170: 0553 1cbd d660 9f3d 4d55 d4bb 9835 ff3d
00000180: 8f87 3cbe 078d 0f3e 2d9f c3bd 6e03 3e3d
00000190: e0bf 183e d1a9 82bd 448b 8c3c 0908 c2bb
000001a0: 0303 cb3d 7d44 57bd 7c2b 9d3d 1d6c 9b3d
000001b0: 1177 5ebd 4d4c 593e 1752 02be 0acf b93c
000001c0: 4e80 02bd 3c21 ec3a cc35 e23c d7e7 763d
000001d0: c499 8fbd a464 8a3c 638b cb3d b8aa b53d
000001e0: 022f ba3d da0e a23d f18f e8bd caa3 40bc
000001f0: fe0a e33c a5f0 203d 07f4 1bbd d588 c93d
00000200: 6c5b 2ebc 546c 94bc 92eb 233d 08e2 8739
00000210: dcf6 a23d 5244 623d e4d2 42be 8381 033e
00000220: 9e89 89bb efcd 9d3d 05b2 ad3d 092c 93bd
00000230: 611e 4e3e 02df 823b d894 093b 7ad2 813d
00000240: e020 cd3d c732 f43b 9d61 e43c f89b 473d
00000250: 611a 323e f47b fdbd dd7e 92bd d2c5 04be
00000260: ed7d f83c 91a8 5a3d 6440 fbbd ad96 193e
00000270: 9e91 69bd 193a ba3d fc2d fdbd 1b1c b3bc
00000280: d887 f6bd 379b 8cbd 578c cc3c 9bd8 bf3d
00000290: 877f d1bb 6198 d8bc 00cd 433e c145 37be
000002a0: c863 723d b417 0bbe f224 dc3d f3f8 163e
000002b0: 5b79 523b 808b c63c 275f ca3c e660 0fbe
000002c0: 62b7 eabd 7b64 f9bc 6700 ffbc 802b a8bc
000002d0: 5ced 3c3e 32c2 5ebe bc31 0e3e 103f 9ebc
000002e0: 4bfe cf3d 1ffa 123e f432 f7bd 8a46 92bd
000002f0: d7dc fdbd dbcb b13d 91ae f5bc 2a54 9a3d
00000300: 02df bbbd 08ff f83d e926 04be 2035 51bd
00000310: c78c 863b 8c72 72ba 0871 dfbb 2f66 213d
00000320: b636 0e3e 8ac5 0bbe dce0 aa3d d288 47bd
00000330: ae2b 02be 3094 8cbd 53e0 f73c f5eb e53d
00000340: 94d0 72bc 00ba ffbd ebae 123e 35b9 5b3d
00000350: b7a1 c8bd 4cf2 cebd 8d80 05bd 08cd 1b3e
00000360: 66d8 08be 645d b4bd 740d 5e3d b23e be3d
00000370: 3f4c 83bd 82ce 27bd 1ce8 cbbd 11ac ebbd
00000380: 20e5 183d 4afc bc3c 1359 14be 2549 7c3c
00000390: 943f 983c 6511 cd3d 0eab 773d aa13 513e
000003a0: 44ea e63d 9ff4 c9ba d91e 933d bbca 063d
000003b0: a0f8 24bc db42 ebbc b1bc b13d d698 e33d
000003c0: cd68 1cbd 1261 58bd cb8e 3d3e c593 5a3d
000003d0: 6888 1a3d f051 e0bc c1b9 a03b 7c90 9b3a
000003e0: c1b7 7e3c 3680 77bc c573 c93d 6cd9 d43c
000003f0: 84d9 163e 303f c33c 488d 3abe 3108 243e
0.0031442854 -0.080102675 -0.05721381 -0.034737006 -0.08107028 -0.14131571 -0.07310655 -0.0050361413
0.005657326 -0.07856351 0.017886212 0.037614845 0.1582324 0.114046015 -0.11174604 0.039840426
0.07502995 -0.09137382 0.10173094 -0.07614625 0.1057452 0.067880176 -0.137336 0.022178177
-0.041258212 0.02771216 0.09509957 -0.19646116 0.0015033714 0.070571944 -0.05313362 -0.05152669
0.10870468 0.050775733 0.09607434 -0.16852933 -0.10972078 -0.023378743 0.04591726 -0.049186513
0.004432257 0.12246336 -0.011825318 0.101325944 -0.057629995 0.025791354 0.15083867 -0.07542905
0.032986686 -0.042932257 0.08865849 0.07522417 -0.080228485 0.056435462 -0.014266345 0.013344168
-0.15276328 0.045246378 -0.0041683 -0.008132298 0.05924206 0.009818778 0.114960425 0.065497704
-0.14364032 -0.06252713 0.02298701 0.07723776 0.0029803573 0.20266496 -0.08828837 -0.025110265
0.037593447 -0.012813298 -0.04177923 0.015390277 -0.08978952 -0.08946667 0.022198468 0.027173467
0.05826879 0.07440762 0.11049812 -0.12645772 0.011512214 -0.13002825 -0.037220582 -0.0198943
0.023244476 0.10300699 -0.030499555 0.14544925 -0.03816511 0.07782142 -0.006479895 0.12461394
-0.18411086 0.14018641 -0.09551845 0.04638999 0.14916945 -0.06380046 0.01715625 -0.005921368
0.09912684 -0.05255555 0.076743096 0.0758898 -0.05431277 0.21220513 -0.12726627 0.022681732
-0.031860642 0.0018015276 0.027613543 0.060279693 -0.0701175 0.016893692 0.09938695 0.08870453
0.09090997 0.07912989 -0.1135558 -0.0117578 0.027715202 0.039291997 -0.03807452 0.09840552
-0.010641914 -0.018118061 0.04001958 0.00025917613 0.07957241 0.055240937 -0.19025761 0.12842374
-0.0041973135 0.07705294 0.0848122 -0.071861334 0.20128776 0.0039938698 0.0020993259 0.06338973
0.10016036 0.007452342 0.027878577 0.048732728 0.17392875 -0.12377158 -0.071531035 -0.12966087
0.030333484 0.053383414 -0.12268141 0.14998884 -0.057023637 0.090931125 -0.123622864 -0.021863988
-0.12037629 -0.068655424 0.024969263 0.09367486 -0.0063933763 -0.026439847 0.1912117 -0.17897703
0.05917719 -0.13583261 0.10749234 0.14743404 0.003211579 0.02423644 0.024703575 -0.14001808
-0.11460759 -0.03044342 -0.031128122 -0.020528555 0.1844992 -0.21753767 0.1388616 -0.01931718
0.101559244 0.14353226 -0.120702654 -0.071423605 -0.123956375 0.086814605 -0.029990466 0.07535584
-0.09173395 0.12158018 -0.12905468 -0.051076055 0.0041061374 -0.0009248636 -0.0068188943 0.03940409
0.13888058 -0.13649574 0.0834367 -0.048714466 -0.12711975 -0.06864202 0.030258333 0.11226646
-0.014820237 -0.124866486 0.14324538 0.053643424 -0.0979647 -0.10104808 -0.0325933 0.15214932
-0.133638 -0.08806875 0.05421205 0.09289302 -0.06411027 -0.040968426 -0.09956381 -0.115074284
0.037327886 0.02306952 -0.14487104 0.015398298 0.018585004 0.10013083 0.060465865 0.20417657
0.11275151 -0.0015407986 0.07183618 0.032908183 -0.010069042 -0.028718403 0.08678568 0.111131355
-0.038185883 -0.05282695 0.18511502 0.05336358 0.037727743 -0.02738282 0.004904956 0.0011868621
0.01554674 -0.015106251 0.098365344 0.025982581 0.14731413 0.023833841 -0.18217957 0.1601875

_input_layer.0.bias f4 [64]
00000000: a418 a4bc 4d95 f2bc 2dc7 27bb f4c6 8b39
00000010: 0502 b4bb 13cc 1fbb 474a 96bb 0e75 d1bc
00000020: 77ba cd3a e7b3 50ba 13ef 583a c704 46bc
00000030: 6be5 87bc a11d efbb 5b1e 02bc 24bc 2dbc
00000040: 03c7 b43c 8778 45bc 4cc2 ed39 4e9d 123c
00000050: c5b0 50bb 7e92 543a 519d 45bb e30b 57bb
00000060: fa2b 733c 138c fbb9 23c1 61bc ac13 25bc
00000070: 6906 7cbc 683a 37ba f4d3 553c 8990 ac3c
00000080: 3dd6 b1bb c0ca b0bb 8e4f c7bc d89a febc
00000090: 7f61 4b3b 2a2c 4d3a e73b bdbb 1355 843c
000000a0: fa82 76bc a850 903a f386 e23a 9661 6b3c
000000b0: b46f 07ba c023 b6bb 9e69 563b 806d 1a3c
000000c0: f557 a9bb 3967 123c 8140 10bb 7379 d3bb
000000d0: db1b a23c 285b 4cbb b0d4 35bc 5d3a 323c
000000e0: a5c3 343c d1a5 a6bb 3375 693c 06f9 35bc
000000f0: 42d4 2cbc 566e 3dbb e1a7 e03b eec9 cabb
-0.02003128 -0.029612208 -0.0025600896 0.00026660378 -0.005493405 -0.0024383112 -0.0045864913 -0.025568511
0.001569583 -0.0007961378 0.0008275371 -0.0120861 -0.016588887 -0.007297233 -0.007941808 -0.010603938
0.022067552 -0.012052662 0.00045348925 0.008948637 -0.0031843644 0.0008108987 -0.0030153582 -0.0032813482
0.014842028 -0.00047978814 -0.013778958 -0.010075491 -0.015382388 -0.0006989599 0.013051022 0.021065013
-0.0054271505 -0.0053952634 -0.024329927 -0.031079695 0.0031033454 0.00078267104 -0.005774963 0.016153848
-0.015045876 0.0011010366 0.001728265 0.014366528 -0.00051664864 -0.005558461 0.0032716761 0.009425521
-0.005167956 0.008935743 -0.0022011104 -0.006453687 0.019788673 -0.0031182263 -0.011098072 0.010878173
0.011032973 -0.005085685 0.014249134 -0.011106735 -0.010548653 -0.0028904877 0.00685595 -0.0061886227

_input_layer.1.weight f4 [64]
00000000: cdac 7f3f b701 673f 6de7 7d3f a686 783f
00000010: f1cd 793f bfe3 813f 7e35 6c3f 777e 753f
00000020: a59d 763f 5c70 763f 2dc0 6f3f 587a 6d3f
00000030: 4e65 7a3f 65b3 6d3f 1bcd 7d3f 1acc 6e3f
00000040: 75dc 6c3f 8879 6f3f e529 773f e810 7a3f
00000050: 7ad1 793f 5f31 783f 0777 793f 1976 763f
00000060: 3d5e 7a3f aa6c 783f 811b 733f 527e 6c3f
00000070: 6e5b 673f e280 833f 7b71 5d3f 8a0f 713f
00000080: 38b4 703f 83a7 753f 80e9 703f d28f 6f3f
00000090: 328e 6d3f d63a 693f 3d0a 833f b129 773f
000000a0: 468a 733f b330 773f e6a8 723f 1d87 7a3f
000000b0: 41a6 863f fdde 6d3f ed86 833f 453b 913f
000000c0: e6d4 803f a1a1 723f 4987 7e3f 9a41 5e3f
000000d0: 1ac0 713f 32a1 6d3f 6e24 6d3f 9dc2 6c3f
000000e0: 69e5 703f b6c8 733f 929f 683f c9c3 743f
000000f0: 89d1 813f 3c93 763f 39a8 7e3f 087a 743f
0.9987305 0.9023699 0.9918125 0.9708046 0.97579867 1.0147628 0.9226912 0.95896095
0.96334296 0.96265197 0.9365261 0.92764807 0.9781083 0.9285186 0.9914109 0.93280184
0.9252389 0.93544817 0.965483 0.97682047 0.9758526 0.96950334 0.97447246 0.9627395
0.97800046 0.9704081 0.9496384 0.9238025 0.90373886 1.0273707 0.8650128 0.94164336
0.9402499 0.9595873 0.9410629 0.9357883 0.927951 0.911054 1.02375 0.9654799
0.95132864 0.96558684 0.9478897 0.97862417 1.0519487 0.9291838 1.0275551 1.1346213
1.0064971 0.94777876 0.9942518 0.8681885 0.9443375 0.9282409 0.9263371 0.92484456
0.9410005 0.95228136 0.90868485 0.95611244 1.014207 0.9631841 0.9947544 0.95498705

_input_layer.1.bias f4 [64]
00000000: 0766 04be 6c7d d9bd dc89 f23d 40e5 3f3d
00000010: d102 4bbe 93b6 693d e9f8 83bd eff6 29bc
00000020: 3dbe abbd 14d9 0d3c 3810 02be 04a5 04ba
00000030: 405e eb3d 2b49 103e d48f 083e a64e 1dbe
00000040: 656c 103d ebe1 023e d849 d3bd 718b b83b
00000050: e9bd 6bbc e9d5 53bd f128 0d3e 696e 09be
00000060: f479 e7bd 447b 1e3d 954d a93c b586 01be
00000070: f7c8 02bd 7e04 08bb 8d8d 913e 457f 5f3d
00000080: da21 cdbb 5a9b c7bc 050a 973d edb2 36bd
00000090: 89d0 e03d c1cb 78be c046 13bd 4c29 0dbe
000000a0: 1394 5ebd 6446 19be e30f 8dbc 7bc6 fc3d
000000b0: df34 6a3e 6a68 8bbe c6c4 8d3d 8f88 273e
000000c0: 16bc a7bd 8c8f 9c3d 677c 263e 8d03 dc3d
000000d0: e7e2 043d 52a2 c8bd c708 943d 41af a53d
000000e0: d82e 2b3e 01e3 053d 104b 9e3e 389c 61bc
000000f0: 1b5f 17bd 07fd 08bd 6fd5 2e3c 0b04 1dbe
-0.12929545 -0.106196254 0.11842701 0.04684949 -0.19825293 0.057058882 -0.0644396 -0.010373815
-0.083858944 0.0086577125 -0.127015 -0.00050599896 0.11492586 0.14090411 0.13336116 -0.15362033
0.035259623 0.12781493 -0.10316819 0.005631857 -0.01438854 -0.051717672 0.13785149 -0.13421024
-0.113025576 0.038691774 0.020666877 -0.12649043 -0.031929936 -0.002075463 0.28428307 0.054564733
-0.006260139 -0.02436607 0.07374958 -0.04460423 0.10977275 -0.24296476 -0.035956144 -0.13785285
-0.054340433 -0.14968258 -0.01721949 0.12342545 0.22871731 -0.272281 0.06922297 0.16360687
-0.081901714 0.07644567 0.16258393 0.10742865 0.032442953 -0.09796585 0.07228237 0.08090068
0.16717088 0.03268719 0.30916643 -0.013770156 -0.036955934 -0.03344443 0.010671004 -0.15333574

_input_layer.1.running_mean f4 [64]
00000000: 9a99 a0bf 67d8 223f 5a01 e33d 4520 cdbe
00000010: 2a00 263f 1f1d 18bf 4f4e 053f c126 703e
00000020: c5b8 e93d 1fa3 073f 2c79 20bf 9b09 0b3e
00000030: ef94 62be 1cba 5a3f 01a7 a53e de8b f73e
00000040: 2f56 723e c62e 113f 4a74 cf3e f823 823e
00000050: bcf2 9d3f ba9f 69bd 0270 2fbf 2f29 0fbd
00000060: 8d91 203f f6ca 8dbf 4fd9 e73d 1abf 903d
00000070: f15a cc3e dd87 1dbf 2174 093d c307 3dbf
00000080: a5e1 a53e 7f31 913f 0434 913f 667d 4e3e
00000090: 30fc e7be c58c 3ebe e711 35be eb32 a3bf
000000a0: ff33 0f3f b49a 25bf 8a1e 5dbe 5345 80bf
000000b0: f977 2cbf 673f 613e e7b7 0f3e f8d8 233f
000000c0: a45f de3e 7021 6fbe 05ca 423f be49 b93b
000000d0: 327a 0ebf afb7 58be 106c 353f 6e0a 3fbb
000000e0: 87bd e7bd eb2a 093e e64e 12bf c853 863e
000000f0: cdd0 573e fbaf 883f f0bf 983b c0a0 013f
-1.2546875 0.63611454 0.11084242 -0.40063682 0.64844 -0.59419435 0.52072614 0.23452283
0.11412195 0.5298328 -0.62684894 0.13577883 -0.22127126 0.8544023 0.32353976 0.48348898
0.23665689 0.56711996 0.4051841 0.25418067 1.2339702 -0.057037093 -0.68530285 -0.034951385
0.6272209 -1.1077564 0.11320745 0.070677 0.39913133 -0.61535436 0.033558015 -0.7383997
0.32398716 1.134323 1.1343999 0.20165023 -0.4530959 -0.18608387 -0.1768261 -1.2749914
0.55938715 -0.64689183 -0.21593681 -1.0021156 -0.67370564 0.21996842 0.14034997 0.64002943
0.43432343 -0.23352599 0.7608951 0.0056545427 -0.55655205 -0.2116382 0.70868015 -0.0029150504
-0.11315446 0.13395278 -0.5715164 0.26235795 0.21075745 1.0678705 0.0046615526 0.5063591

_input_layer.1.running_var f4 [64]
00000000: 7ed3 923c fee5 393b 9a5d 003d 2862 0d3d
00000010: 8b12 b83c 720b af3d dc87 213d c6be b93c
00000020: ad1f 1e3d 67e5 523d af16 9c3c bc17 8b3c
00000030: a282 ef3c c3b2 743d 973a 9d3c 4e81 3e3d
00000040: c017 013c 42fe 2a3d 3228 973c cb7d 7a3d
00000050: 47a4 b23d fccc 7d3d df57 aa3d ca10 703c
00000060: 2d6a 573d e814 8a3d 94c2 643d fb0e ff3c
00000070: 6915 a13c 44a1 ff3c fdf9 683d 964c bf3c
00000080: f96e 983b e827 e13d e62e 9f3d 27db f73a
00000090: 541a 973d 50a1 313d 9d88 133d 3c0c 4e3d
000000a0: ef91 323d 0bb3 3c3d 5e21 3f3d f352 1e3c
000000b0: 2d57 193d f068 af3b a5aa 163b 996a 143b
000000c0: f059 a23d 3bf8 ed3c e23d 5d3d bd1d 303c
000000d0: d640 543d e769 7f3d 3e40 a43c ccde 083d
000000e0: 1813 1e3c f6cc 113d 715c 993c 28f9 583d
000000f0: 38f4 123d c9e6 843d 861f 133c efcf 803c
0.017923113 0.0028365846 0.031339265 0.034517437 0.02246978 0.08547105 0.039436206 0.022673976
0.038604427 0.051488306 0.019053785 0.01697909 0.029237095 0.059740793 0.019192977 0.046510033
0.007879198 0.041746385 0.018451784 0.06115512 0.0872274 0.061963066 0.08317541 0.01465244
0.05259149 0.06742269 0.055849627 0.031135073 0.01966353 0.031204827 0.056879032 0.023351949
0.004651901 0.1099394 0.07772617 0.0018909917 0.073780686 0.04336673 0.036018956 0.050304636
0.043596204 0.046069186 0.04666268 0.009663331 0.037436653 0.0053530857 0.0022989896 0.0022646545
0.079273105 0.02904903 0.054014094 0.010749278 0.051819645 0.062356856 0.020050164 0.0334156
0.009648107 0.035595857 0.018720837 0.05297199 0.035877436 0.06489331 0.008979684 0.01572415

_middle_blocks.0.weight f4 [256, 64]
00000000: 3b64 f9bd 45b9 cebd 705c 84bd 0680 e6bc
00000010: 3fd2 e23d d5d6 973c df6c 903a 387f e1bd
00000020: 0582 573d a704 663d 2ce9 09bd ab2e 67bd
00000030: b058 033e bae8 c1bc e842 ccbc 35ee 83bc
00000040: 1bd7 75bd 88bb dfbd b84b c2bc 4d42 973c
00000050: 9efa 0cbe 29a0 953d 9501 2d3e 9568 f93c
00000060: 9e75 da3d 23fc 96bd d44f 173e 2f96 4e3d
00000070: 7c23 c5bd 4ade d6bb 1a31 273d cf90 2ebe
00000080: eebc 803d 2aa7 4c3c 29be 28be da31 36bd
00000090: 98c5 063e 5d2f 853d 8757 05bd 5542 d53d
000000a0: e9de 523b d3af e4bd cf1e ac3d 39a8 21be
000000b0: ebeb e1bd 4086 16bd dac2 0c3d aad2 163e
000000c0: 102b 96bd 088f 1b3c a6e7 e9bd 32c9 d73b
000000d0: 1408 9d3d 3447 9a3d 0dbc 8ebc f1c7 1dbe
000000e0: 7ca4 89bd c941 ec3d ec8d 30be bf95 0a3d
000000f0: 3b94 d8bd f4d2 b4bd 9763 4dbd 31c9 d4bd
00000100: d919 193d df71 373c 4778 07be 254f 55bd
00000110: 6e4f 5c3d 20a9 8b3c f340 d43d 7636 8abd
00000120: c3ff 1ebc 199b 8dbd d8a4 58bc a9cb a0bc
00000130: ba96 d93d 09f4 893d ed9d d4bc f0bb dd3d
00000140: e30d f3bd e769 cdbc 301c 933d 354a 9d3d
00000150: ee91 f6bd 4f5d 5d3a a4bc 9bbd 6333 86bd
00000160: 0a7f 403d 1451 203d 06a5 92bc 1536 9c3d
00000170: fb88 83bc c427 1ebd b508 213e bc3c 07be
00000180: f39b 8b3d ab48 813d 29df 753a 86f2 7dbd
00000190: 4e47 183d 4982 0e3d c6f2 b3bc 5e3f afbc
000001a0: 3c18 d1bd d5d4 27be f062 9f3d 6a4e 25bd
000001b0: baf3 e23c f5fe 473d c66b 953d 48cf 3e3e
000001c0: f312 313d 3fb4 9e3d aad0 ad3b 3b3e 243e
000001d0: ceca 293d ef9b 39be 63fa 4bbd 4d3a 2ebe
000001e0: fa24 0d3c bef3 62bd c432 233e 0df3 a13c
000001f0: 3e66 05bd 0c3d a03c 5136 aabd 6bc3 133c
00000200: b228 00be 329a 72bd 6508 263d 1bdc a33d
00000210: 08ff 0f3e 94d4 033b 0234 6bbd a6ec f93d
00000220: 1b20 47be 12d3 be3d ff5c f03c d476 abbd
00000230: ce43 39be 4c01 a3bd fcf4 2f3b 0b3e e4bc
00000240: 7e98 04bd 7643 463c 3c59 063e 3f27 263e
00000250: 89da 37bd 0a88 07be 7754 9f3d 1f77 cd3d
00000260: d9b9 2ebc 8003 31bd 011b bbbd 318f 44bd
00000270: 9312 353e 87da ed3d 8c15 83bd 3743 cd3c
00000280: 8bac 8e3d af87 6f3d f026 02be b1da 3cbd
00000290: 104c 1c3e 1baf 613d 7d6b b93d 6180 8abd
000002a0: eee2 96bd 2f31 68bd 2987 28be e3de 9bbc
000002b0: 3477 c1bc 8bcb acbc ed8c fd3d 5d4e f73c
000002c0: 3eb8 a43d 9faa 9a3d 11ba 10be 37a4 4bbe
000002d0: daac bd3d 644c a7bc 85e1 d1bc 1be7 913c
000002e0: b625 febc d69e a1bc a60d bc3c e030 21bc
000002f0: a9f2 ad3d d0a3 95bd 76e9 8e3d aeaa aabc
00000300: b4cb 443c f8af 92bb c7c5 1e3e e3b8 bdbc
00000310: fefc 873c da1e e2bd 1dda a2bd 5e28 8fbd
00000320: 0663 1fbc 5dae 0a3c 3180 223d 232c 02bd
00000330: 8653 403c f3c1 12bd a929 94bd 8825 31bd
00000340: c219 b1bc 0fed 77bc 1374 f23c 74cb 0e3e
00000350: 6023 3d3e 0eca 4a3c 9e05 9a3d 4213 1c3e
00000360: 0acd 833d 4264 513d 7794 943d 780b 9c3c
00000370: 632f 45bc 2ca2 e7bd dc51 cabb eaff 9e3d
00000380: 75f2 95bd 27f6 41be 1184 4b3c 9226 82bc
00000390: e07f df3b 8032 ba3d b7ff 6ebd 7a03 0fbd
000003a0: 92c5 b1bc d466 06bd b207 6ebc 945c 2d3d
000003b0: 3c13 d1bb 3dbb 863d 66ad 083e b26c 4f3e
000003c0: 4417 fdbd 5a6e ac3c ce89 9e3c 1e30 1fbd
000003d0: 8a3b 31be e7db 4ebc b957 fa3a f3a0 e43d
000003e0: bfda 14bd ce1d af3d 56b8 23bc 3729 62bd
000003f0: a192 a5bd 9edd 993d 4734 c83c c151 0cbc
-0.121773206 -0.10093931 -0.064629436 -0.028137218 0.110752575 0.018535057 0.0011018774 -0.11010593
0.05261423 0.05615678 -0.033669636 -0.05644099 0.128268 -0.023670543 -0.024934247 -0.016104797
-0.060019594 -0.109244406 -0.023717746 0.018464232 -0.13767478 0.07305939 0.16895135 0.030445376
0.10666965 -0.0737231 0.14776546 0.050436195 -0.09625909 -0.0065572606 0.04081831 -0.17047428
0.062860355 0.012491027 -0.1647879 -0.044481136 0.13161314 0.065031745 -0.032554176 0.104130425
0.0032176322 -0.11166348 0.08404314 -0.15786828 -0.11031326 -0.036749125 0.034365512 0.147288
-0.07332432 0.0094945505 -0.114211366 0.0065852636 0.076675564 0.07533112 -0.017423654 -0.15408303
-0.06720826 0.11535985 -0.17241639 0.033834215 -0.10575148 -0.088292986 -0.050143804 -0.10389937
0.037378166 0.011196583 -0.13229476 -0.05207743 0.053786688 0.017048419 0.103639506 -0.06748669
-0.009704533 -0.06914348 -0.013222896 -0.019628363 0.10624452 0.06735999 -0.025954211 0.10826862
-0.11867883 -0.025074912 0.07183111 0.076801695 -0.12039553 0.0008444385 -0.0760434 -0.0655277
0.046996154 0.039139822 -0.017900955 0.07627503 -0.016056528 -0.038612142 0.15725978 -0.13206762
0.06816854 0.063126884 0.0009379262 -0.061998866 0.037177376 0.03479222 -0.02196635 -0.02139252
-0.102097005 -0.16389783 0.07782543 -0.040357985 0.027704109 0.04882713 0.07295947 0.18633759
0.043230962 0.07749223 0.0053044157 0.16039364 0.041453175 -0.1812589 -0.049799334 -0.17014427
0.008614773 -0.055408232 0.15937334 0.019769216 -0.03256821 0.01956036 -0.08311141 0.009018759
-0.12515524 -0.059229083 0.04053535 0.08000966 0.1406213 0.002011572 -0.057422645 0.1220334
-0.19445841 0.09317602 0.029341219 -0.08372274 -0.18092272 -0.07959232 0.0026848903 -0.027861616
-0.03237199 0.012101045 0.13119978 0.16225909 -0.044886146 -0.13235489 0.07779782 0.10032486
-0.010664427 -0.04321623 -0.0913601 -0.04798812 0.17682867 0.116139464 -0.06400594 0.025056465
0.06966504 0.058479007 -0.12710166 -0.046106998 0.1526339 0.055098634 0.09053705 -0.067627676
-0.07367502 -0.05668753 -0.1645781 -0.01902718 -0.02361641 -0.02109315 0.12380395 0.030188734
0.08042954 0.07552075 -0.14133479 -0.19886862 0.092614844 -0.020422168 -0.025620231 0.017810395
-0.031023841 -0.01972906 0.022955727 -0.009838313 0.084935494 -0.073066354 0.06978123 -0.02083334
0.012011457 -0.0044765435 0.15505134 -0.02315945 0.016600128 -0.11041041 -0.07951758 -0.06990121
-0.009728199 0.008464423 0.039673034 -0.031780373 0.011738664 -0.035829496 -0.072345085 -0.043248683
-0.021618728 -0.015132203 0.029596364 0.13944799 0.18470526 0.012377275 0.07520603 0.15241721
0.064355925 0.051121004 0.0725488 0.019048437 -0.012035224 -0.11310229 -0.006174309 0.077636555
-0.07321636 -0.18941556 0.012421624 -0.015887532 0.006820664 0.09091663 -0.058349337 -0.034915425
-0.021700654 -0.03281291 -0.014528202 0.042324618 -0.0063804667 0.065786816 0.13347396 0.20256308
-0.12357953 0.021048713 0.01935282 -0.038864248 -0.17307869 -0.012625671 0.001909963 0.11163511
-0.036341425 0.08550607 -0.00999268 -0.055215087 -0.08084608 0.07512973 0.02443899 -0.0085644135

_middle_blocks.0.bias f4 [256]
00000000: 1ee6 de3b e39e f2bb b375 e0bb 9ff0 b13c
00000010: cf83 aab8 bea5 a33b ab7f 2eba 50ad bc3b
00000020: a297 e13a 3c75 0b3b b02b 313b 17d4 c2ba
00000030: efa5 41ba 076f 623b 4e27 53bc ee5f 29bc
00000040: e2a7 b6bb 4754 27bc 9f1d a53b 8cbd 563b
00000050: 5415 8e3c 4623 6e3c a540 65bb 555f 3fbc
00000060: 0995 873a 4a8c 51bb e96a 0dba 78fe 153c
00000070: 77d1 efbb afc0 ccbb ea65 6dbc f66a 843b
00000080: 8be9 983b 50b4 33bb ee02 e6bb 70c4 fa3b
00000090: 24af 54bc fb3f 3abc a7cc a9bb 3164 ca3b
000000a0: 7167 583a c9c2 873b 9b1f 15bc 0cab 15bc
000000b0: 4cd0 0a3b 2718 d03b cd1a dfba 6f7b 26b9
000000c0: a09d b4bb face d5bb cf1e 51ba 1324 cfba
000000d0: a59b 213c d702 b93b f856 213a e464 bcbb
000000e0: 9723 723c 3458 19bc fb17 51b8 207c 213c
000000f0: 0110 d33a 509a 0cbb d628 febb d378 e7bb
00000100: b075 aa3b df5a 05bc 5330 aebb 6d37 493b
00000110: b1c2 5d3c f3ee 5ebb c3ca 0abc 0614 b9ba
00000120: e169 4e3c 8728 763a 969a 05bc b7e3 263b
00000130: 3ada 3fba 84b2 debb b6d7 a93b 429a 66bc
00000140: 423b 203c 06c3 6cbc 5d45 b2bb 3e4b 813c
00000150: d642 693c ae47 b83b fc27 0f3c ef7c fcbb
00000160: 8233 8abb f1de 4abc a13e 4cbb 162d 133c
00000170: fb66 86bb 6b6d da3b 5c2e c4bb 3c27 a23b
00000180: 99f5 04bc 0651 c239 1033 5fbc ea7b aabb
00000190: 4f2e 003c b951 053a 8fe5 563b f558 343c
000001a0: 8444 293a a65a 163b a2c8 903b dbe2 70bc
000001b0: 815f 48bc af1d a83b 6a53 25bc 97d4 1fbc
000001c0: 42a1 92bb 5010 413a d2fb 143c 0dbe bb3b
000001d0: 9913 803b 5eb7 6abb 60db b2bb d26e 1fbb
000001e0: 70bd 2ebb f5f1 19ba f91c 28bc c3bf 003b
000001f0: fb1c 843c 4bf6 0c3c bc9b d23a 4680 ac3a
00000200: 227d dbbb d16b 963b f1ed 453c 2f61 b2bc
00000210: cc8c 8ebb f344 c6bb f20b d33b c1c8 14bc
00000220: 0980 1fbc 7edd 073c 01a0 f0bb 97d4 2a3b
00000230: 618a 94bb 5816 2e3b 0ba9 b0bb 5248 6b3b
00000240: c3b7 4a3c 5d09 8d3a 09bc 1fbb b596 1d3b
00000250: bd8c 433b 43fa 1d3c ac73 7dbb 0d37 1a3c
00000260: 2b92 963c 0689 fd3b 5fd5 2b3b 93d4 9d3b
00000270: 9107 f4bb 0cc9 c93b 59ab 963a 3eb3 2c3a
00000280: ae34 f03b 0313 783c 5e3c e53b 43cd 26bc
00000290: 5953 41bc 6a43 9ebb c5ec c6bb fd85 93ba
000002a0: a618 183c 7cdb 963b 4ed3 0dbc b8e8 4dbb
000002b0: 321e 32ba 2f14 e53b b0f2 00bc 8039 20ba
000002c0: 7a53 f03a 332d 23bc 3835 f5bb 1ae8 9aba
000002d0: 0313 fbba bece 533c 2b4a 6d3b b07a e73b
000002e0: 4ac3 a33c b5bd c73b 52b8 453b 8cdb 6ebc
000002f0: 6d81 673b 55b4 06bc 67fa 49ba 6bc0 103b
00000300: dcbc a3ba ba0a cf3b dcd3 663b 1727 953b
00000310: ac2d 903c d578 983b 21e2 b2bc 590b 02bc
00000320: b443 d4bb 3096 e7bb a03e 403c 5bd7 b037
00000330: 88e4 a3bb 8d1c 863b 6c2a 003c 7896 953b
00000340: 83d7 1d3c 3b82 b0bc b148 003c 33a4 6ebb
00000350: 2292 293b a551 08b9 f54d 1dbc 3be9 8cbc
00000360: ea55 ce39 381f 023c d80b 1fbc 5f48 223c
00000370: 2bc4 58bc e7ec 95bb 80ba 8c3c 1773 6d3b
00000380: 0ef5 63ba 8f87 4b3c cb1c 883c aca6 20bb
00000390: bcb1 5a3b a967 833b 48a6 aabb d4d7 0e3b
000003a0: 3656 043c a40a 0dbb 414a 563c 2cb4 00bc
000003b0: b1b1 733c 2dcf 61bb 858f ec3a b0ff 3abc
000003c0: cd41 533c d0c3 d9ba b3cf e9b8 2245 5e3b
000003d0: 2e3c 9a3b d18b 7abb 8e1a d5b7 947a 9e3b
000003e0: 9d34 9ebc 58b6 92ba 0315 4f3c d04f d23b
000003f0: 827e 88bc bd0c 163b 28c1 ea3b e5cc dbb9
0.0068023345 -0.0074041947 -0.0068499683 0.021721182 -8.130783e-05 0.0049941232 -0.0006656597 0.005757965
0.0017211328 0.0021279594 0.0027034096 -0.0014864233 -0.0007387092 0.003455104 -0.012887789 -0.010337813
-0.0055742124 -0.010212964 0.0050389315 0.0032766787 0.017344154 0.014534777 -0.0034981158 -0.011680444
0.0010344099 -0.0031974488 -0.0005394654 0.009154908 -0.0073186713 -0.0062485556 -0.01448963 0.004041071
0.0046665124 -0.0027420707 -0.007019392 0.0076528117 -0.01298121 -0.011367793 -0.005181867 0.0061764945
0.000825516 0.0041430932 -0.009101774 -0.009135019 0.0021181284 0.0063505354 -0.0017021537 -0.00015876976
-0.0055119544 -0.0065249177 -0.0007977308 -0.0015803598 0.009863769 0.0056460905 0.0006154622 -0.005749332
0.014778993 -0.009359408 -4.9851817e-05 0.009856254 0.0016102792 -0.0021454282 -0.007756333 -0.007063964
0.0052020177 -0.008139341 -0.0053158193 0.0030703202 0.013535188 -0.0034016937 -0.008471194 -0.0014120347
0.012598486 0.00093901943 -0.008154532 0.0025465318 -0.000731859 -0.006796183 0.0051831855 -0.014074864
0.009779753 -0.014450794 -0.0054403977 0.015782949 0.014237126 0.0056237793 0.00873756 -0.007705323
-0.004217566 -0.012382255 -0.003116526 0.008982917 -0.0041016317 0.0066658757 -0.005986972 0.0049485248
-0.008115196 0.0003706293 -0.013623014 -0.00520276 0.007823541 0.0005085725 0.0032790636 0.011007537
0.0006457048 0.0022942214 0.0044184485 -0.014702524 -0.012229801 0.0051304917 -0.010090688 -0.009755275
-0.00447479 0.00073647965 0.009093242 0.005729443 0.003908586 -0.0035814862 -0.0054582804 -0.0024327529
-0.0026663207 -0.0005872541 -0.010260814 0.001964555 0.0161271 0.008603643 0.0016068141 0.0013160787
-0.0066982666 0.0045904894 0.012080655 -0.021774856 -0.0043502804 -0.0060507 0.006440633 -0.009081067
-0.009735116 0.008292554 -0.0073432927 0.0026066655 -0.0045330976 0.002656361 -0.0053912452 0.003590126
0.012372914 0.0010760237 -0.0024373552 0.0024046127 0.0029838525 0.009642187 -0.0038673682 0.009412539
0.018380245 0.0077372817 0.0026219708 0.0048166006 -0.007447191 0.006158 0.0011495157 0.00065879885
0.0073304987 0.0151412515 0.0069957217 -0.010180774 -0.011799657 -0.0048298137 -0.0060707056 -0.0011255142
0.00928322 0.0046038013 -0.008656336 -0.0031419229 -0.00067946606 0.0069909315 -0.007870361 -0.0006112084
0.0018335425 -0.009959507 -0.007483151 -0.0011818439 -0.0019155446 0.012927709 0.0036207538 0.007064186
0.019990582 0.006095613 0.0030169678 -0.014578711 0.0035324947 -0.008221705 -0.00077048544 0.0022087346
-0.0012492198 0.0063184174 0.0035221493 0.004551779 0.017599903 0.004653076 -0.021836342 -0.007937276
-0.0064777974 -0.0070674643 0.011733681 2.1081118e-05 -0.0050016083 0.004092759 0.007822614 0.0045650564
0.0096339015 -0.021546474 0.007829831 -0.0036413788 0.0025874455 -0.00013000386 -0.009601106 -0.017201057
0.00039355393 0.007942013 -0.009707414 0.00990495 -0.013230364 -0.00457536 0.017178774 0.003623193
-0.0008695879 0.012422456 0.016615292 -0.0024513407 0.0033370098 0.00401016 -0.0052078106 0.0021796124
0.008077195 -0.0021521235 0.013079227 -0.007855456 0.014873908 -0.0034455762 0.0018048143 -0.0114135
0.012894106 -0.0016614143 -0.00011148993 0.0033915718 0.004706881 -0.003823031 -2.5403944e-05 0.00483639
-0.019312197 -0.0011193259 0.012639287 0.006418206 -0.016661886 0.0022895776 0.0071641393 -0.00041923593

_middle_blocks.1.weight f4 [256]
00000000: 1081 713f b620 783f f3cf 6d3f 3d28 8b3f
00000010: 3ed2 803f 2a65 773f cc5a 7f3f ffa8 773f
00000020: a076 763f 83ff 723f 6806 7a3f b216 733f
00000030: 49bc 743f e894 773f 4a5e 753f c709 793f
00000040: d4a6 7e3f e369 753f c51a 7c3f 440c 6e3f
00000050: 9c65 8a3f e0ea 833f 5716 723f ba70 753f
00000060: c5df 793f 9075 7b3f 0ae0 7b3f 434b 783f
00000070: f11c 7f3f 2ae7 7b3f 2f2f 7d3f 4b02 783f
00000080: c38f 873f cc7a 783f d8d7 733f 7807 7a3f
00000090: 9117 773f 7177 7a3f 9fba 6f3f d5c5 703f
000000a0: e6f1 763f a747 803f eaef 7d3f 8668 6f3f
000000b0: cfc8 793f d515 753f 18fe 7b3f 40cc 7b3f
000000c0: fe08 733f 7db9 823f 0042 6e3f ad35 753f
000000d0: 34af 833f cb61 7d3f b1b2 6e3f b427 793f
000000e0: db6b 773f 0dfe 6f3f 34a8 733f de03 803f
000000f0: 16fb 7b3f fdb3 833f 0bc2 7b3f 19cb 773f
00000100: 2355 7c3f 3166 763f 9c05 7d3f cdb0 783f
00000110: 8816 733f 8d21 8a3f 63b4 7a3f 05ad 733f
00000120: a3c9 773f ec29 753f 85a0 8f3f 835b 773f
00000130: fbb4 783f 29be 7c3f 0cae 793f 8694 733f
00000140: 6205 753f 6b59 833f 3e7a 723f 49ae 7c3f
00000150: 6213 7d3f a8f6 7b3f e062 7a3f 7805 733f
00000160: 5aa9 713f 828f 7b3f 7d09 753f a326 753f
00000170: 7554 743f ae7f 783f d9bc 7e3f 8751 753f
00000180: 908b 813f 2bf3 753f 89de 753f c524 723f
00000190: 9d04 7d3f 18b1 763f 0cb8 793f 679d 833f
000001a0: b77b 753f f9e1 6d3f a2a9 7d3f ad6e 723f
000001b0: ce0f 7c3f a193 7a3f 4582 7a3f 928b 763f
000001c0: fd04 733f e334 843f 8845 7c3f b5d2 733f
000001d0: e1d2 753f ae42 843f 17ec 753f c810 763f
000001e0: 11f5 7f3f 9bab 713f 84f3 7a3f f890 7a3f
000001f0: 7385 713f 7bcb 783f dcce 7e3f 60e9 733f
00000200: a492 723f 7a77 723f 82bf 793f 9b4f 7a3f
00000210: 1624 783f c753 773f 7d25 793f ef76 6c3f
00000220: 054e 733f d6cd 733f df69 7e3f 05c5 723f
00000230: 79b6 773f 0de5 763f 6042 753f 77ce 7d3f
00000240: d1c6 753f f351 743f 97a4 753f cb4d 743f
00000250: 5e58 703f 6059 803f f558 773f 9edc 7c3f
00000260: be4a 7a3f 7123 723f 6cea 7a3f d400 803f
00000270: 225a 783f 21d7 753f 6334 733f 3cae 7a3f
00000280: 7e2b 7c3f 69bc 7c3f a605 753f fac8 6f3f
00000290: 385a 7c3f 0464 733f 3c69 753f 78a6 793f
000002a0: fd71 7d3f b4e4 833f 6eb4 773f 5be8 743f
000002b0: 57da 763f bbee 713f 5215 7e3f 869a 7f3f
000002c0: 18b4 733f 6c36 793f 0f74 7f3f fe2a 7a3f
000002d0: b17a 753f b833 713f ed3a 753f ed4d 813f
000002e0: 590b 853f 700c 763f 6bdb 7d3f 9006 7b3f
000002f0: df64 7d3f 5cf3 783f 7083 7d3f 6839 753f
00000300: 7645 803f 6a36 743f 7d42 793f b06f 763f
00000310: 68a9 7d3f 6b28 7b3f 0264 813f 924f 763f
00000320: d4c6 793f 2194 6e3f c53c 793f 7a97 7d3f
00000330: 7a92 6f3f 0e42 763f cfb8 813f 95ac 733f
00000340: ff53 723f 2679 783f d10b 7d3f 1296 803f
00000350: 4171 763f b67b 753f 02a4 773f d9a7 723f
00000360: 05e2 773f c484 7e3f 9de4 7f3f 246a 6e3f
00000370: ad0d 733f 9dfa 773f 262b 803f ebf1 743f
00000380: ef19 773f bc59 823f 0ca4 793f 78eb 6c3f
00000390: 458a 753f 2bcb 743f 872c 7a3f 6ba0 733f
000003a0: 165e 7c3f fc03 783f 63cd 773f e818 803f
000003b0: b15d 7b3f 2730 763f 29d2 8b3f 5636 7a3f
000003c0: 461a 6f3f dc6f 753f 9d39 793f 784e 7e3f
000003d0: bff5 783f f912 773f bc81 813f c965 7f3f
000003e0: 7dc6 7c3f 5277 793f e514 753f 4365 7c3f
000003f0: 253c 793f 87c4 753f 9240 7c3f ac9c 7b3f
0.9433756 0.9692491 0.9289543 1.0871655 1.0064161 0.9663874 0.9974792 0.9674224
0.9627476 0.9492113 0.97666025 0.94956505 0.955998 0.9671159 0.95847 0.97280544
0.9947331 0.95864695 0.9847835 0.92987466 1.0812259 1.0306053 0.9456534 0.9587513
0.9760707 0.9822626 0.9838873 0.9698984 0.99653536 0.98399603 0.9890012 0.968785
1.0590748 0.97062373 0.95251226 0.97667646 0.96520334 0.97838503 0.93644136 0.9405187
0.9646286 1.0021867 0.99194205 0.93518865 0.97572035 0.9573644 0.9843459 0.98358536
0.94935596 1.0212857 0.9306946 0.9578503 1.0287843 0.98977345 0.9324141 0.9732621
0.9664895 0.93747026 0.9517853 1.000118 0.9843 1.0289303 0.9834296 0.9679428
0.9856741 0.9624968 0.98836684 0.97144777 0.94956255 1.0791489 0.979315 0.9518588
0.9679205 0.9576709 1.1220862 0.9662401 0.97151154 0.9872766 0.975312 0.95148504
0.9571134 1.0261663 0.94717777 0.9870344 0.988577 0.9842324 0.9780712 0.9493022
0.94399035 0.9826585 0.957176 0.9576208 0.9544137 0.97069824 0.9950691 0.95827526
1.0120716 0.9607417 0.96042687 0.94587356 0.98835164 0.96363974 0.9754646 1.028241
0.958919 0.9292293 0.99086964 0.9470013 0.98461616 0.97881514 0.97855026 0.9630672
0.94929487 1.032864 0.98543596 0.9524339 0.960249 1.0332849 0.9606337 0.96119356
0.99983317 0.94402474 0.98027825 0.97877455 0.9434425 0.97185487 0.9953439 0.95277977
0.94755006 0.94713557 0.9755784 0.9777772 0.9693006 0.9661221 0.9732283 0.9236898
0.95040923 0.95235956 0.99380296 0.9483188 0.96762806 0.96443254 0.95804405 0.99143165
0.96006495 0.95437545 0.9595427 0.954312 0.9388484 1.0027275 0.9662011 0.98774135
0.977703 0.9458533 0.9801395 1.0000253 0.9701253 0.96031386 0.9500181 0.9792211
0.98503864 0.9872499 0.95711744 0.9366604 0.9857516 0.95074487 0.958637 0.97519636
0.9900206 1.030417 0.9675969 0.95667046 0.9642691 0.945049 0.9925128 0.9984516
0.95196676 0.97348666 0.99786466 0.9772185 0.9589034 0.9421954 0.9579304 1.0101906
1.0394088 0.9611273 0.9916293 0.9805689 0.9898204 0.97246337 0.9902868 0.9579072
1.0021198 0.9539553 0.9736708 0.9626417 0.9908662 0.9810855 1.0108645 0.96215165
0.9756901 0.93194777 0.9735835 0.9905926 0.9358288 0.9619454 1.0134524 0.95185214
0.9465942 0.9705986 0.98846155 1.0045798 0.9626656 0.9589189 0.9673463 0.94787365
0.96829253 0.99421334 0.9995821 0.9313071 0.9494274 0.9686678 1.0013168 0.9568164
0.96523947 1.0183635 0.9751594 0.92546797 0.9591411 0.9562251 0.97724193 0.95166653
0.98581064 0.9688108 0.9679777 1.0007601 0.98189837 0.96167225 1.0923511 0.9773916
0.93399465 0.9587381 0.97353536 0.99338484 0.9724998 0.96513325 1.0117717 0.99764687
0.9874037 0.97447693 0.9573501 0.98592013 0.973574 0.96003 0.98536026 0.9828594

_middle_blocks.1.bias f4 [256]
00000000: 222a 343e 4e8d 44bc b71b b9bd 907c 593d
00000010: 770e 1dbe b7fe d4bb e151 3abe adb6 5dbd
00000020: 084e 7c3c d092 003d 8a76 a43d a29e ee3d
00000030: 13ff 693d 1dfb 82bd 99b0 2d3e 6bd4 67bc
00000040: d289 373e 799c 61be 61ee e6bd 17a8 81bc
00000050: 883e 43be 07b1 25bd c2f9 bb3d fc07 5b3d
00000060: 21ad e2bd 19bf edbd e2ef 6e3d 7065 fa3d
00000070: d9ac b4b9 78a6 84be 9ffd a73d b852 5e3d
00000080: 615a 7ebd 7374 fc3c 313b c9bc d166 34bc
00000090: ec71 65bc 996b 423d c113 b1bd 2148 913c
000000a0: f7d9 f4bc d635 20be fd17 d2bc 7c79 c63c
000000b0: 458d bd3c 3446 e2bb edf5 6bbd 72c9 d2bb
000000c0: 4c39 a7bc 5107 8fbd b992 35bd a023 c23b
000000d0: 56d0 1e3e c0c4 34bd a67f 6abb 25c3 623b
000000e0: 7d09 513d 20e0 a43d 3e82 533d 58ae c73d
000000f0: bdc5 2dbd 7ff1 0c3e 918d 103d 95db 973d
00000100: 6ca3 0bbe aad1 df3d 1da2 783c 60e8 523d
00000110: f928 03be 5a2a d43d 4aa6 04be 2c0a 05bd
00000120: 22fe b6bc 7126 353d 2af8 5b3d 7aad cabd
00000130: 906e 11bb 5801 283e e6fe e73c 0a7f 9dbd
00000140: ae47 73bd f5ee b2bd ecef 23be 4ed3 ce3c
00000150: 1660 b237 f77a c8bb 4f27 a4bd 9a2c c3bb
00000160: 4c6f c93d b74c 083d 15a7 983d 83cf dc3d
00000170: 14b6 f43d 7503 dcbc c9d0 cf3d c174 bc3d
00000180: 1aea 083d e03d b9bd 8886 a3bd 6d48 d6bc
00000190: 859d 17bd ea56 193d c6c6 533d 3cc3 b5bc
000001a0: 0914 723d 81bc 57be 1791 cdba 8fe7 ab3c
000001b0: afc6 48bd d1d2 3abd 7919 eb3b 6a1a 17be
000001c0: 3152 c63c 80aa a1bd a118 2bbe 6c5a 70be
000001d0: 0bc0 88bd cee4 1bbe 5a3b 843d 2490 13ba
000001e0: 85fb f43d 1d46 a6bc e6b7 a13d 4e9c e4bd
000001f0: 4847 01be 594f 013e fc05 cabd 776d 30be
00000200: 1266 89bc 0751 163c f6fd 66bd e6b2 c1bc
00000210: e7e5 953d 9f13 af3c faf2 0b3b 3cab abbd
00000220: 91fe 3dbd 1d45 73bd 2c09 5ebd 12e2 fdbd
00000230: 935d 0e3e 2eae 293d e90c 013d d0b7 07be
00000240: 7ac5 1abd 9823 6dbc 6a11 833a ee2f 543e
00000250: 0255 0f3d 0886 70bd a9fd 06be 3f69 82bd
00000260: d16a e23b 8728 bebd d0d6 313d 67a0 c6bd
00000270: 5807 6cbc 112d 9bbd 8e24 2fbd cbd2 9c3d
00000280: 3149 67bd da13 033e d4c3 b4bd 33d0 24bb
00000290: 272a 233d 7be1 cf3c abbc ce3d 8dd0 09be
000002a0: c080 7f3d 0a60 2ebd 90e0 453d 41b6 6cbd
000002b0: b213 e03c d63f 20bd ab11 cc3d ff23 4abe
000002c0: 0bf0 673d 8961 543d 2da1 72bd 95a6 16be
000002d0: 4334 f43d d307 183e 269c 18bd 6189 103e
000002e0: 669e 0a3e 3cdc e03c be18 9a3c 15c2 ef3c
000002f0: a82f 8ebd 367d 743d fb8c 223d cbf8 903c
00000300: 2fa5 83bd 1291 f6bd d9f1 f0bb c3f4 9cbc
00000310: 1fe7 aa3d 1bbe 18bc 29e9 cc3c fd16 92bd
00000320: afb2 2a3c 574a 533d 700c 21bd 4b29 d33d
00000330: 0909 e43c 14c0 fcbc c6bc d13b 6621 a1bc
00000340: dd91 d73c 7d3a c83c 3a23 1d3e d5cd 66bd
00000350: c6db 03bd a4aa 7e3c 16f8 bfbe 44df 6a3e
00000360: 8f6f 483d 51dc b6bd 199f 1a3d d845 d03d
00000370: 3bb4 003e 0f32 8f3d ac0c 383c 4d0d 05bd
00000380: 8716 13bd 8654 08bd 1085 8cba e0e1 0ebe
00000390: 8ab0 303d 0572 4d3d ba3d e33d 04c7 b2bc
000003a0: 6f2b 473d 01cf 263c 97bf 543c 9885 bc3d
000003b0: 3497 ea3b 20b1 a7bc cb44 09be 9c17 eebd
000003c0: 0ada d1bd 3357 313d 838b 9ebd 5e11 38bd
000003d0: 908d 99b9 2982 b9bb d1ed 8cbd 8c96 f43b
000003e0: a85d 3fbd 7ebc b5bd 35f1 8abd fd12 c6bc
000003f0: bf44 663d 2fbd a8bc f90c 18be 0463 38be
0.17594197 -0.01199658 -0.09038489 0.053097308 -0.15337549 -0.006500091 -0.18195297 -0.05412929
0.0153994635 0.03139001 0.08030422 0.116513506 0.057128023 -0.06395552 0.16961898 -0.0141497655
0.17923668 -0.22032346 -0.11275936 -0.015827222 -0.19066823 -0.04045203 0.09178497 0.05347441
-0.11068178 -0.116087146 0.05833424 0.12226379 -0.00034461057 -0.25908256 0.08202671 0.054278105
-0.06209791 0.030817246 -0.024564357 -0.0110108415 -0.014004212 0.047465894 -0.08646346 0.017734589
-0.02988909 -0.15645537 -0.025646204 0.02422785 0.023138652 -0.0069053415 -0.05760758 -0.0064327056
-0.020413063 -0.06983817 -0.04432938 0.005924657 0.15509161 -0.044132948 -0.003578165 0.0034601178
0.05103444 0.08050561 0.05163788 0.0975005 -0.042424906 0.13763998 0.03529126 0.07414929
-0.13636559 0.10928662 0.01517537 0.05149114 -0.12808599 0.103596404 -0.12954059 -0.032480404
-0.022337977 0.044226114 0.053703465 -0.09896369 -0.0022191145 0.16406763 0.028319787 -0.076902464
-0.05939453 -0.08736984 -0.16009492 0.025247242 2.1263997e-05 -0.006118174 -0.0801531 -0.0059562447
0.09835681 0.033276286 0.07453743 0.10781767 0.11948791 -0.026857117 0.101472445 0.092019565
0.03342638 -0.09045005 -0.07984644 -0.026157582 -0.037015457 0.037436403 0.051703237 -0.022187822
0.05910114 -0.21068002 -0.0015683499 0.02098444 -0.049017604 -0.045611206 0.0071746674 -0.1475617
0.024209114 -0.078938484 -0.16708614 -0.23471993 -0.06677254 -0.15224001 0.06456633 -0.00056290836
0.11962036 -0.020297104 0.07896404 -0.11162625 -0.12624848 0.12627925 -0.09864423 -0.17229258
-0.016772304 0.009174592 -0.05639454 -0.023644876 0.07319241 0.02137166 0.0021354542 -0.0838227
-0.04638535 -0.059392083 -0.054207966 -0.12396635 0.13902883 0.041425876 0.031506453 -0.13253713
-0.037785985 -0.014473818 0.0009999697 0.20721409 0.03499318 -0.058721572 -0.13182701 -0.0636773
0.006909706 -0.09285074 0.04341775 -0.09698563 -0.014406048 -0.07576955 -0.04275947 0.07657393
-0.056466285 0.12800542 -0.08826414 -0.002514851 0.03983512 0.025376072 0.10094579 -0.13458462
0.062378645 -0.04257206 0.048309863 -0.057791 0.027353141 -0.03912338 0.099643074 -0.19740294
0.056625407 0.05185083 -0.05923574 -0.14711984 0.11924031 0.14846735 -0.03725829 0.14114906
0.13536987 0.027448766 0.018810626 0.02926735 -0.069426835 0.059689723 0.03968523 0.017696759
-0.06427991 -0.12039389 -0.0073530492 -0.01915968 0.08344864 -0.009322668 0.025013523 -0.07133291
0.010418578 0.051584568 -0.039318502 0.103106104 0.02783634 -0.030853309 0.0064006774 -0.019669246
0.02631467 0.024441952 0.15345469 -0.05634864 -0.032192014 0.015543614 -0.37493962 0.22936732
0.048934516 -0.08928741 0.037749384 0.10169572 0.12568752 0.0699197 0.01123349 -0.032483388
-0.035910156 -0.033283733 -0.0010720808 -0.13953352 0.04313711 0.050157566 0.11095758 -0.021823414
0.048625406 0.0101811895 0.012985132 0.092051685 0.007159138 -0.020470202 -0.13405149 -0.11625597
-0.10246666 0.04329605 -0.077414535 -0.044938438 -0.00029287906 -0.0056612683 -0.068812974 0.0074642356
-0.046720177 -0.08873843 -0.06784288 -0.024178976 0.056217905 -0.020598022 -0.14848699 -0.18006521

_middle_blocks.1.running_mean f4 [256]
00000000: d692 06bd b412 ca3d 701e fabc b84c 3f3d
00000010: a302 e4bd 13fd dd3c bbec 6c3d aec8 46bc
00000020: 48af 95bc 0452 95bd a323 253d fff1 0c3e
00000030: 6f76 6e3c afb5 063e 7c53 203d 071c 843d
00000040: 517b 90bd 3b72 ddbd 889a 8fbc b762 993c
00000050: 9ec2 25bd c769 7f3d cf42 b73b 6e49 cbbd
00000060: 6fd6 f33b d1da 49bb 949a d73c 7bc4 c5bd
00000070: d89c 533d 4d12 c93c 97c4 a6bd 5e31 3bbd
00000080: 6d8a a0bd e182 47bd a45f f9bb 73b7 013d
00000090: cc34 9fbd c04f b2bd c452 c5bd 4a69 e7bc
000000a0: e7c2 413c 5102 4e3c 4a44 b9bd fff5 01be
000000b0: 98c0 98bd 290a 923b 3779 693d 0598 04bd
000000c0: f102 b43c 175e 0b3c c99e 623d f60c 92bd
000000d0: 18fc e93d 2624 a2bd fdfa 403d bfd4 10be
000000e0: 14fd de3d afd3 aa3d 2db7 fa3a 616e 3b3d
000000f0: c18b ac3d d166 60bc 4fe9 1fbe a351 4f3c
00000100: d033 e33b e75d c1bc 4485 db3d 1e9b bbbc
00000110: 7028 943d cb7a 02bd 6304 5ebd b8d0 f93b
00000120: 4a70 afbd d422 d9bd f53a 0f3d 124d cfbc
00000130: 4472 0c3c 5b1b a53d 5718 d23c c052 3dbd
00000140: e5ce a3bd 9f76 6cbd befe 3bbd 0e29 d43b
00000150: af66 16bc fd33 04bd 09be 483c df99 87bd
00000160: 5a29 273d 0190 86bd bf76 36bc 3737 b63d
00000170: 3733 0abe 7208 b6bb 39c4 39bc 8f39 78bc
00000180: dc96 233d fe2f 5cbc 438e efbc b76e 173d
00000190: 5177 073d 3293 483d 5640 183e e037 7ebd
000001a0: 114b ad3d a508 10bd 47df 94bb da6a 303c
000001b0: a3fc 32be 7bc5 5abd 7d15 30bd 2d32 c6bd
000001c0: 4e37 083d 24ea b3bc 6fc5 9fbc e112 85bd
000001d0: 97a3 363d f8dd aabd 09be 8cbd 9b85 303c
000001e0: edd1 0f3b 9715 853d bff2 a33c 9a29 373e
000001f0: 9066 bcbd f89e ba3d b2df a8bd 464a 05be
00000200: 7d99 d03c cfb1 613d cf1c afbd ee40 d3bc
00000210: 1034 abbd 78fe 3d3d ea77 95bc a979 05be
00000220: fc33 30bd 072d e73c 7e9b 68bd 58ed d13b
00000230: 4bf0 94bc 49d0 82bc d2b9 243d 44dd 813d
00000240: 996b c0bd bcd4 9e3d c0c8 10bd 0616 05bd
00000250: b4c3 173d a4f1 0dbd b75e a4bd cec1 d1bb
00000260: b6dd ff3d 2199 3dbc 9064 bf3c 95fd fa3d
00000270: 8c98 04be bab2 793d f96b 143e 066d f83d
00000280: 4b05 bd3d dd5a 813d 538c b2bd a1df dfbc
00000290: 72c5 31bd 23c9 b8bd 171c 8d3d fbc5 7cbc
000002a0: d2a5 e8bb 1067 8f3c 8063 4fbc 8ed2 3a3c
000002b0: 0617 033d 47b8 b0bd 39ca 03be c053 fa3d
000002c0: b38e 98bd 72a8 813d 7be4 b4bc 33bc 08bd
000002d0: d27d b33d a576 113c 7f52 603d 68d3 14be
000002e0: 77dc 6f3d 2a67 1cbd 7f09 66bd 5a7b d3bb
000002f0: 083b 893c aff2 f63c a86c 633c 0a2c 4bbd
00000300: 98b0 2f3d 7eb5 36bd d57d cc3d c2d2 ac3c
00000310: 8e98 6dbd 72d1 493d fb04 d8bd c3b3 233b
00000320: 70f1 873b 1621 5abd 6466 503d 61f0 0b3d
00000330: e1da 213d 54b2 0c3d 9b4c 773d bb0e 46bd
00000340: 1f4d fb3c 395b fcbb 4ba2 2c3d 350a a73d
00000350: 3f44 db3d e4d4 2b3d e6ea 8dbd 039d ac3d
00000360: 1281 5b3d 3fcf 7cbb 0c39 debd 18cd e23d
00000370: e22f 08be 3fca a13d ad96 9ebd 6258 ac3d
00000380: 9f98 c9bd 7a53 203c d1d3 abbc 3365 79bd
00000390: faae c13c fee0 46bd 5f89 603d 90a5 3f3c
000003a0: 9812 eb3b a9b9 d1bd 2711 4d3d 5264 c2bd
000003b0: 618b 05be a0c0 2a3d f8a2 35bc 8f05 be3b
000003c0: d7f4 883d 530f 473c dd21 d73d 5485 85bc
000003d0: 32e9 a6bd 202e 40bc 778d 28bd c6a2 5bbc
000003e0: 1c40 a1bd ede3 d13d 625e 2cbd ad5e 5ebd
000003f0: 5535 763c 1099 733d 2f21 093d 0dda 4abb
-0.032854877 0.098668486 -0.030532092 0.046704024 -0.111333154 0.027098214 0.05784295 -0.012132807
-0.018272057 -0.07291034 0.04031719 0.13764189 0.014554604 0.13155244 0.039142117 0.06450658
-0.07054771 -0.10812803 -0.01752974 0.018723829 -0.040468805 0.062356737 0.005592681 -0.09926115
0.007441334 -0.003080059 0.026318826 -0.09656616 0.05166325 0.02454486 -0.08142965 -0.045701377
-0.078389026 -0.0487088 -0.007610278 0.03166909 -0.07773742 -0.08706617 -0.09634927 -0.028248448
0.0118262535 0.012573794 -0.09046228 -0.12691496 -0.07458609 0.0044567776 0.057000365 -0.03237154
0.021974059 0.0085063195 0.05532721 -0.07131378 0.11425036 -0.07917051 0.04711436 -0.14143656
0.108881146 0.08341157 0.0019128077 0.045759562 0.084250934 -0.013696388 -0.15616344 0.012653741
0.0069336668 -0.023604346 0.10718778 -0.022901114 0.07234275 -0.031855386 -0.054203402 0.007623758
-0.08566339 -0.10602346 0.034968335 -0.025305305 0.008572165 0.08061858 0.025646372 -0.046221495
-0.079984464 -0.057730313 -0.045897238 0.0064746207 -0.009179755 -0.032276142 0.012252339 -0.066211455
0.04081092 -0.06570435 -0.01113671 0.0889725 -0.134961 -0.005555206 -0.011338287 -0.015150442
0.039938793 -0.013439177 -0.02924264 0.03697082 0.033072773 0.0489685 0.14868292 -0.062065005
0.084615834 -0.035164494 -0.0045432183 0.010767663 -0.17479186 -0.05341099 -0.042989243 -0.09677539
0.033255868 -0.021962233 -0.019503323 -0.064977415 0.044589605 -0.083431184 -0.06872184 0.0107740415
0.0021945194 0.064982586 0.020013211 0.17886963 -0.0919925 0.09112352 -0.082457915 -0.13016614
0.025463814 0.055101212 -0.08550417 -0.025787797 -0.083595395 0.04638526 -0.018245656 -0.13034691
-0.043018326 0.028219713 -0.056788914 0.0064064674 -0.018180987 -0.015968459 0.040216275 0.06341031
-0.093955226 0.077554196 -0.0353477 -0.032491706 0.03705187 -0.034654275 -0.08025878 -0.006401277
0.1249346 -0.011572153 0.023363382 0.12255398 -0.12948817 0.060961463 0.14494313 0.121301696
0.09229525 0.06316159 -0.08718171 -0.027328314 -0.04340119 -0.09022739 0.06890123 -0.015428062
-0.0070998454 0.017505199 -0.012658 0.011402739 0.03200438 -0.08628898 -0.1287011 0.12223005
-0.07449093 0.063309565 -0.022081604 -0.033382606 0.08764233 0.008878385 0.054766174 -0.1453377
0.05855986 -0.038184322 -0.0561614 -0.0064539136 0.016751781 0.030145017 0.013880886 -0.049602546
0.042893022 -0.04460668 0.09984938 0.02109659 -0.058006816 0.04927201 -0.10547825 0.0024978973
0.0041486546 -0.05325421 0.050878897 0.03416479 0.03951538 0.034349754 0.06037579 -0.04835389
0.030676423 -0.0077013043 0.042146962 0.08156244 0.10706376 0.041951075 -0.06929569 0.08428385
0.053589888 -0.0038575677 -0.108507246 0.11074275 -0.13299516 0.078999035 -0.07743583 0.08415295
-0.09843563 0.009785527 -0.020975025 -0.060887527 0.023643006 -0.048554413 0.054818507 0.011697188
0.0071738474 -0.1024049 0.050065186 -0.09491791 -0.1304145 0.041687608 -0.011086218 0.0057990025
0.066873245 0.01214965 0.10504506 -0.016298927 -0.08149947 -0.011729747 -0.041150536 -0.013405507
-0.07873556 0.102485515 -0.042082198 -0.05428951 0.015027364 0.059472144 0.033478912 -0.0030952722
